Medium Scale Test Coding fast privacy preserved deep learning/convolution1_bias_3.npy (npy, 640 bytes, 1 tensors)

array f8 [64, 1]
00000000: 50a0 7863 7b9a 4ec0 d9a1 b8e8 86f9 3c40
00000010: 551d b650 d9f9 3fc0 638f 6f40 e2f6 3240
00000020: 1f63 0f69 ab88 40c0 b6f3 1ee3 a137 5340
00000030: c782 5504 0e00 52c0 1b62 612d e3eb 3b40
00000040: e30e c447 7eba 5440 5520 cc50 898d 55c0
00000050: 916f 682a 4184 46c0 c4ff e3a5 17ac 2d40
00000060: 0b5b 9fb1 70fc 4d40 1a1a e720 fc9c f0bf
00000070: 30c4 e21e 687c 4f40 6e36 8b54 ae7c 4a40
00000080: 2caf 22c4 11e3 2b40 32bd 2ff4 a904 58c0
00000090: 0d85 741d 0f38 5140 d50c de94 4818 22c0
000000a0: b7c9 27b2 f602 4940 4b3c bcc1 f9cf 1b40
000000b0: 8ffa eb15 168e 4bc0 57c6 4cc3 ec02 42c0
000000c0: 6a45 c462 0e22 22c0 2373 cf34 0de4 ffbf
000000d0: e09b c7dd d73c 5740 6776 a869 8104 4fc0
000000e0: b28f 04d0 9ec6 52c0 ea84 f350 cbbd 5040
000000f0: e638 3b42 9bc2 2140 9580 355a 5006 50c0
00000100: 07ff ff58 383f 5140 814f 20aa d844 52c0
00000110: 332f 2c24 05eb 4940 97bf 083b 817a 5040
00000120: 830e a1e7 2290 44c0 cfb7 ecad d42b 3fc0
00000130: c032 c21d a0f7 4c40 c44d 99dd 8bf8 4e40
00000140: 2d9c bd96 04b1 5440 6295 1cc1 97c4 50c0
00000150: 3689 e6a6 9240 55c0 cb94 ae17 45fd 3b40
00000160: 84db 357c 2606 55c0 b61d e8db e179 4040
00000170: 144e a0c2 7007 3bc0 f527 b70e 8a22 46c0
00000180: 9f42 098e 262e 0f40 a29f 46ad 720a 4ec0
00000190: 4918 a8ba 7704 57c0 d6b7 9187 a53e 5340
000001a0: 7fa7 0338 4138 28c0 bb71 205e b6e7 4340
000001b0: c2ec 8e5a 9be8 3340 1185 1aae a332 2ac0
000001c0: eda7 fcf4 6a06 24c0 e3b7 11e4 da35 37c0
000001d0: 79ef 03eb 13b9 5640 9d4b 0e2b 7ebe 5340
000001e0: 5b66 4b35 37f6 4c40 5d42 fb5d e37f 4440
000001f0: 4eb5 a9c9 f2f9 3540 43c7 cc0d 9f07 ff3f
-61.20689052 28.974714799 -31.975972218 18.964389827 -33.06773103 76.86925581 -72.0008555255 27.9214352
82.91395754 -86.21150608 -45.033238698 14.83611792 59.972189143 -1.038326386 62.97192751 52.974070137
13.94349492 -96.07287316 68.87592255 -9.047428753 50.023153562 6.953101184 -55.110049 -36.02285043
-9.066516005 -1.993176657 92.950675435 -62.035199363 -75.10344315 66.965534437 8.88009078 -64.09865432
68.987814188 -73.075724155 51.8360944 65.91413761 -41.12606521 -31.17121398 57.93457386 61.94176836
82.76590508 -67.07176235 -85.008950925 27.989335518 -84.09609895 32.95220517 -27.029064335 -44.26983818
3.897534475 -60.08162466 -92.069807686 76.978853123 -12.10987258 39.81025292 19.90862051 -13.09890503
-10.012534767 -23.21037126 90.8918407 78.976450695 57.92355982 40.9991261937 21.976360897 1.93936067
