Medium Scale Test Coding fast privacy preserved deep learning/convolution1_weight.npy (npy, 6528 bytes, 1 tensors)

array f8 [160, 5]
00000000: 1817 5811 7f14 3cc0 3a53 2067 2581 4840
00000010: d5d6 80ef d38c 5740 01f5 0b1b 0a58 40c0
00000020: b9f8 a1f3 56c9 5740 a19c ec8f c54e 39c0
00000030: f415 4960 188b 54c0 858d fc0b ce91 41c0
00000040: fd1d 1f67 79fa 41c0 5085 0518 92dd 42c0
00000050: d437 dd70 2712 1f40 7e96 9d34 43d1 54c0
00000060: dbd4 4864 8246 58c0 a187 3037 450f 3240
00000070: 5890 0302 df0a 5040 dd30 0211 ff65 5740
00000080: c227 a5b9 b8d8 58c0 27e8 c458 054f 4840
00000090: 2434 590e 3a74 4340 3c5c 9b5b 5b2e 51c0
000000a0: c64c e47a c2ed 4240 2446 6c03 b99a 3540
000000b0: 92f7 6008 ef94 42c0 7db2 209c a873 5440
000000c0: 422b ac2b d137 3140 bc36 e17f 2718 4bc0
000000d0: 6e74 a5d0 7ffc 5740 c331 2658 7790 4d40
000000e0: c842 7408 dc32 5240 cc42 3ba7 592c 1b40
000000f0: 9f44 be2a 1bce 4d40 3a14 91a3 f177 5640
00000100: c8b8 3d9c 1bd8 2940 ab4c bcf9 c919 24c0
00000110: 924a 9296 537f 5040 e152 2160 6567 58c0
00000120: 18d9 c686 0bab 4d40 29da 0bbb de3c 1d40
00000130: 2c15 6df1 9de8 3a40 8d05 2a88 26dd 3fc0
00000140: 9993 6b98 8e3c 5340 4dc2 b0bc def4 2540
00000150: 77a2 c1f9 56af 5840 4655 1cda 4a00 2cc0
00000160: c117 897d 4099 4540 febc 0402 f855 38c0
00000170: 360c 7aca c517 3640 9de7 dbc4 8178 53c0
00000180: 92b2 45d2 6e39 5640 3a8e 8254 4848 54c0
00000190: 7cf4 c0a6 529c f53f b0f2 db42 1df1 47c0
000001a0: 7836 58f6 2cef 3c40 b126 6085 a5f0 5440
000001b0: 88eb 62e4 76b1 11c0 3ba5 9f4a 2ffa 4d40
000001c0: 18ff e329 5096 2940 381f 4bdd 9d49 57c0
000001d0: c504 146e 22c6 5840 558d b9c6 c2ad 4cc0
000001e0: 936a 02b9 82de 4740 3a09 21f7 9f77 4d40
000001f0: 1a79 0f86 f09a 2d40 0e80 372b c23b 5540
00000200: 6553 8de2 054f 5140 7681 0257 7840 5740
00000210: e4da 2f23 2505 56c0 a18c c8e2 c42c 3340
00000220: 1bd9 537a bfe8 39c0 f01f 246e 02ad 55c0
00000230: 5ed3 28c9 df5d 4fc0 c077 9b37 cea7 57c0
00000240: 2529 6529 04c4 5540 b9ed 3147 45f0 4240
00000250: 1308 bffd 4ee5 1440 e4a4 0fe1 888d 2d40
00000260: 93e5 294d 7880 4dc0 9caf cc3a 6732 35c0
00000270: 5fed 28ce 5183 1440 d4ab 75a0 5699 40c0
00000280: eba9 00d8 b30b 36c0 b66f 903e dd87 4040
00000290: 5ea1 0f96 b14c 5740 08b5 6f86 4c07 31c0
000002a0: 720e e896 67f6 5440 7f7e 8406 47bb 52c0
000002b0: e4a8 627e fce8 29c0 e740 c527 5344 5140
000002c0: 6cec d0b8 094d 57c0 bfe9 863b d1be 4840
000002d0: 3914 a83f 8701 5940 9917 37a0 6b2b 3d40
000002e0: d316 b6ea e3a0 4240 8461 5f11 0700 4a40
000002f0: 0dee bdae 15a3 03c0 0345 4046 7fc7 5240
00000300: a7e5 2303 42ff 55c0 e823 be4d 5e2d 4940
00000310: 50f5 d0e3 9c16 5040 1724 4868 3507 47c0
00000320: 2943 1330 5377 5240 dc86 cdd7 9709 3240
00000330: 0932 8662 4085 58c0 39ac 8fd8 0576 4240
00000340: 7814 b4b7 fe00 44c0 e13d 6ac0 1e05 5840
00000350: 31f9 978b 357a 5640 0341 3ef0 4ade 3ac0
00000360: 48aa 29a8 2c25 26c0 2d78 6027 bdbf 54c0
00000370: d889 8164 f0f7 3ec0 2796 84d9 feb2 5540
00000380: 1425 0083 4d4d 58c0 a749 9d3e 0a7b 44c0
00000390: b3ad 6e0e 3a15 2040 563c c8c7 fb79 56c0
000003a0: a4fe a04c a807 3340 fedd 33f9 43fb 5740
000003b0: 0dce 7554 141e 3140 d2c9 ceb2 59f6 23c0
000003c0: 3b57 7304 9981 49c0 7aa9 756e 1ce3 4a40
000003d0: 68d3 2a5d 6e6e 2140 9005 f997 ac73 29c0
000003e0: 2461 df4e e22c 5740 0e9a 8676 88e5 4ac0
000003f0: 0dd6 4e80 a0f7 3340 7fe5 f7ec 6fb4 39c0
00000400: 105d edb4 7746 3d40 aaee 91cd 55a7 56c0
00000410: 60ec 5ace 67aa 57c0 eeb4 5630 8172 4940
00000420: 5a48 e1f6 5be5 38c0 d60d caea 0c33 5040
00000430: d153 0d90 a285 14c0 bac4 cbb2 2b35 58c0
00000440: 4ffc ffd5 b615 4840 4080 b163 c8c6 f3bf
00000450: 3323 72b0 edac 3740 97ec f1a5 64ed 3ec0
00000460: 1de1 3819 eac1 3f40 bd90 8064 4901 38c0
00000470: 8f0c c55f 4b5c 5640 725a 0940 502c c4bf
00000480: 3fe0 c31d f6c2 5640 9d97 92fe c17b 38c0
00000490: d180 72c2 a178 56c0 0347 580d 2ffb 5240
000004a0: 6cf4 cfab 388d 4540 fe54 cb8c 6d81 5440
000004b0: e57d 7ff7 cc48 5440 b888 1844 1e7b 55c0
000004c0: 118d 8bf6 fab4 51c0 922a c402 e3f0 5440
000004d0: 6167 7faa ce7b 4940 5c6b f7c4 9d8e 3f40
000004e0: c7e0 9b85 4118 51c0 92cd f2c8 618f 47c0
000004f0: 6e7c c018 de06 4b40 5018 27cd 8582 4d40
00000500: 2f8f 90dc f596 4b40 03f5 a07f 4688 5040
00000510: 371e 0987 20f3 1840 fc08 8ed7 f4fe 35c0
00000520: 3760 044b 7d44 4740 8d4e 6ddb bd0d 4140
00000530: 87b7 b522 bd27 3040 b7ef ee54 c28d 4a40
00000540: 9a90 bd7b 5329 55c0 ec73 ada4 3271 4440
00000550: 52b1 b5e7 c79c 46c0 62bc 0764 865e 3140
00000560: 7226 5c7e 1636 5540 4284 0149 adc7 0fc0
00000570: c679 7c9e e6da 2fc0 3006 410d c0f3 4ac0
00000580: 9927 f822 3191 4ac0 5b92 a8bc c26b 5440
00000590: 4653 c942 ecfd 5240 be7d 46b7 9816 4fc0
000005a0: fc94 5b41 70b2 52c0 4949 0f43 ab16 4f40
000005b0: ded4 5990 1a7a 56c0 83b5 7b03 dd71 4d40
000005c0: 0ff8 c486 e380 4340 aa3b a284 518e 5840
000005d0: c4b7 0b28 2f64 3f40 0c5c bb40 0be9 41c0
000005e0: f038 7ff2 fb56 4840 987f 4d06 d27f 5340
000005f0: cdb1 7a8f 4c7d 3dc0 d647 d02d aed0 14c0
00000600: c0d0 0238 6617 4440 54e7 eec6 44ce 54c0
00000610: 7811 01e2 09a1 3240 e451 437e aa2f 46c0
00000620: 60fc 5d6d ff65 18c0 098c 92e3 905a 3d40
00000630: d736 83c7 900f 5240 8f8b 8b1f bab5 5140
00000640: 8dfb bccd 5ebf 5740 3d6d a6a5 e69b 4d40
00000650: cc2c 0095 4316 3940 10e2 902e 72f6 5840
00000660: fac6 001e 8b19 3140 1c90 08b6 df10 17c0
00000670: 23e7 b3f2 81cf 4ac0 3ca2 0059 e171 5840
00000680: def7 daf9 1f16 56c0 87e3 12aa 4817 2540
00000690: e904 7e9e 509b 2fc0 f5c2 6fd3 3738 5340
000006a0: aa42 c905 e33b 3040 145b ffb6 408d 20c0
000006b0: 292b 7e3a bb5c 2cc0 36c4 fc05 5096 24c0
000006c0: cbaa 21d4 39f5 5240 dc19 9e45 0cf1 3fc0
000006d0: 8340 78fe febb 3fc0 2337 b6e3 753e 5340
000006e0: c05f cc96 ac32 4040 4b59 8638 d6e6 5040
000006f0: c466 dbc4 e48d 5440 d6d6 fcb6 2fb7 39c0
00000700: 328f fcc1 8072 55c0 4ef6 4b9b 1c8b 56c0
00000710: 9224 e748 57f7 4ec0 77f1 e106 3ab5 5340
00000720: 9dee e137 2a54 2740 ee17 81eb 69a5 2140
00000730: d5c7 4b50 26da 34c0 783d c193 d0eb 3fc0
00000740: 021e 83db fb53 52c0 07e4 5cd4 f876 53c0
00000750: 088d 81f1 638e 4440 197d fdf7 7dee 47c0
00000760: 5ca6 0d24 7bbc 3dc0 cee5 a318 a250 55c0
00000770: bdd4 7c53 2052 5440 ae09 2fe2 b7f2 44c0
00000780: 1092 8984 84ec 41c0 562a 0bd3 b50a 3ac0
00000790: a313 5333 b539 3fc0 0542 5f38 1f0b 4c40
000007a0: 400c 7c5e 54ab 45c0 d6f3 5e4a 1711 30c0
000007b0: 6a25 be24 df23 3540 6f4c 7f91 f80c 40c0
000007c0: 7888 354b b832 4540 563a 692b 403b 33c0
000007d0: d87c e053 4e8a 4940 9ae5 5718 6707 52c0
000007e0: 2fea 2841 5e93 47c0 ed80 a96e c76f 4bc0
000007f0: abed c3cd 2b12 58c0 6a9e e946 d47b 13c0
-28.0800639 49.008953944 94.20043552 -32.6878084 95.14593211 -25.30770206 -82.1733628 -35.13910055
-35.95682992 -37.73102093 7.76772858 -83.2697269 -97.10170848 18.059649896 64.16986132 93.59369302
-99.38627473 48.61735067 38.90802173 -68.72432604 37.85749756 21.60438558 -37.1635447 81.80716613
17.21803544 -54.18870543 95.94530121 59.1286421 72.79467975 6.79331075 59.61020407 89.87412347
12.92208565 -10.050369076 65.989476817 -97.61556247 59.33628926 7.3094434 26.90866002 -31.8638692
76.946203332 10.978261849 98.73968357 -14.0005710754 43.19728059 -24.33581555 22.0928618 -77.88292047
88.897389 -81.12941468 1.35066476 -47.88370548 28.93427982 83.7601026 -4.4233051 59.954568222
12.79358035 -93.15026028 99.09585144 -57.3575066 47.73836434 58.934569255 14.8026163 84.933726124
69.23473419 93.0073449635 -88.08039169 19.17487924 -25.90917172 -86.70327333 -62.7333919 -94.6219615
87.06275401 37.8771142 5.22393414 14.77643493 -59.003671308 -21.19688766 5.12824175 -33.19795614
-22.045712948 33.061439343 93.198339 -17.028511431 83.8500726 -74.92621005 -12.955051374 69.0675754
-93.20371838 49.49076027 100.023879923 29.16961099 37.25695547 52.00021569402 -2.4546312 75.117143214
-87.988404069 50.35444042 64.3533258 -46.056317363 73.86445238 18.03747319 -98.08205474 36.922053404
-40.007773364 96.08000193 89.909518145 -26.86833097 -11.07260633 -82.9959200327 -30.96851185 86.79680479
-97.20785594 -40.96125014 8.04145856 -89.905992456 19.029911794 95.92602377 17.11749771 -9.981153095
-51.01248222 53.77430516 8.71568576 -12.72592616 92.70131275 -53.79322702 19.967292804 -25.70483285
29.27526408 -90.614612 -94.66258582 50.89456753 -24.895934515 64.7976634 -5.13050294 -96.83079214
48.16964221 -1.23603095 23.67550185 -30.92731702 31.75747831 -24.005026132 89.44210047 -0.15760234
91.046271745 -24.48342887 -89.88487302 75.924746834 43.103291966 82.0223114 81.13751018 -85.92372229
-70.82781757 83.76385564 50.967244446 31.55709487 -68.37899914 -47.12017166 54.053652853 59.019708294
55.1793781 66.12930289 6.23742877 -21.9959234926 46.53507364 34.10735648 16.15522973 53.107493035
-84.64572042 40.88435801 -45.22485062 17.36923814 84.8451229 -3.972498484 -15.927540734 -53.904298455
-53.13431203 81.6837608 75.96754522 -62.17653552 -74.78810152 62.1771015 -89.90787133 58.8895573
39.006943556 98.22372547 31.39134455 -35.82065591 48.67956382 77.9971938855 -29.48944947 -5.2037894399999995
40.18280697 -83.22294782 18.62905705 -44.37239054 -6.09960719 29.35377333 72.24321163 70.83948506
94.9901613565 59.21797629 25.08696872 99.85071911 17.09977901 -5.76647839 -53.6211532 97.77937913
-88.34570166 10.54547626 -15.80334945 76.878407344 16.23393284 -8.27588436 -14.18111594 -10.29357928
75.83165458 -31.941593505 -31.73435965 76.975945404 32.395892 67.606825 82.21708795 -25.71557182
-85.78910875 -90.17362101 -61.93235122 78.83166668 11.6643846 8.82307373 -20.85214712 -31.921151385
-73.31224716 -77.85893735 41.11242503 -47.86321926 -29.73625398 -85.25989357 81.28322303 -41.89623668
-35.84779412 -26.04183692 -31.22542115 56.086890265 -43.33851224 -16.066761635 21.14012365 -32.101335704
42.3962492 -19.2314479 51.08051537 -72.115667425 -47.15131392 -54.87327369 -96.28392357 -4.87092696
