Medium Scale Test Coding fast privacy preserved deep learning/convolution_weight_3.npy (npy, 3328 bytes, 1 tensors)

array f4 [32, 1, 5, 5]
-0.0800639 0.008953944 0.20043552 0.3121916 0.14593211 -0.30770206 -0.1733628 -0.13910055
0.04317008 0.26897907 -0.23227142 -0.2697269 -0.10170848 0.059649896 0.16986132 -0.40630698
-0.38627473 -0.38264933 -0.09197827 0.27567396 -0.14250244 -0.39561442 -0.1635447 -0.19283387
0.21803544 -0.18870543 -0.05469879 0.1286421 -0.20532025 -0.20668925 -0.38979593 -0.12587653
-0.07791435 -0.050369076 -0.010523183 0.38443753 0.33628926 0.3094434 -0.09133998 0.1361308
-0.053796668 -0.021738151 -0.26031643 -0.0005710754 0.19728059 -0.33581555 0.0928618 0.11707953
-0.102611 -0.12941468 0.35066476 0.11629452 -0.06572018 -0.2398974 -0.4233051 -0.045431778
-0.20641965 -0.15026028 0.09585144 -0.3575066 -0.26163566 -0.065430745 -0.1973837 -0.066273876
0.23473419 0.0073449635 -0.08039169 0.17487924 0.09082828 0.29672667 0.2666081 0.3780385
0.06275401 -0.1228858 0.22393414 -0.22356507 -0.003671308 -0.19688766 0.12824175 -0.19795614
-0.045712948 0.061439343 0.198339 -0.028511431 -0.1499274 0.07378995 0.044948626 0.0675754
-0.20371838 -0.50923973 0.023879923 0.16961099 0.25695547 0.00021569402 -0.4546312 0.117143214
0.011595931 0.35444042 0.3533258 -0.056317363 -0.13554762 0.03747319 -0.08205474 -0.077946596
-0.007773364 0.08000193 -0.090481855 0.13166903 -0.07260633 0.0040799673 0.03148815 -0.20319521
-0.20785594 0.03874986 0.04145856 0.094007544 0.029911794 -0.07397623 0.11749771 0.018846905
-0.01248222 -0.22569484 -0.28431424 0.27407384 -0.29868725 0.20677298 -0.032707196 0.29516715
0.27526408 0.385388 0.33741418 -0.10543247 0.104065485 -0.2023366 -0.13050294 0.16920786
0.16964221 -0.23603095 -0.32449815 0.07268298 -0.24252169 -0.005026132 -0.55789953 -0.15760234
0.046271745 -0.48342887 0.11512698 -0.075253166 0.103291966 0.0223114 0.13751018 0.07627771
0.17218243 -0.23614436 -0.032755554 -0.44290513 -0.37899914 -0.12017166 0.053652853 0.019708294
0.1793781 0.12930289 0.23742877 0.0040765074 -0.46492636 0.10735648 0.15522973 0.107493035
0.35427958 -0.11564199 -0.22485062 -0.63076186 -0.1548771 0.027501516 0.072459266 0.095701545
-0.13431203 -0.3162392 -0.03245478 -0.17653552 0.21189848 0.1771015 0.09212867 -0.1104427
0.006943556 0.22372547 0.39134455 0.17934409 -0.32043618 -0.0028061145 -0.48944947 -0.20378944
0.18280697 -0.22294782 -0.37094295 -0.37239054 -0.09960719 0.35377333 0.24321163 -0.16051494
-0.0098386435 0.21797629 0.08696872 -0.14928089 0.09977901 0.23352161 0.3788468 -0.22062087
-0.34570166 -0.45452374 0.19665055 -0.121592656 0.23393284 -0.27588436 -0.18111594 -0.29357928
-0.16834542 0.058406495 0.26564035 -0.024054596 -0.604108 -0.393175 0.21708795 0.28442818
0.21089125 -0.17362101 0.06764878 -0.16833332 -0.3356154 -0.17692627 0.14785288 0.078848615
-0.31224716 0.14106265 0.11242503 0.13678074 0.26374602 -0.25989357 0.28322303 0.10376332
0.15220588 -0.04183692 -0.22542115 0.086890265 -0.33851224 -0.066761635 0.14012365 -0.101335704
0.3962492 -0.2314479 0.08051537 -0.115667425 -0.15131392 0.12672631 -0.28392357 0.12907304
00000000: 8bf8 a3bd 90b3 123c f83e 4d3e 94d7 9f3e
00000010: 3a6f 153e 208b 9dbe 0586 31be 6070 0ebe
00000020: 1cd3 303d a0b7 893e 8fd8 6dbe a519 8abe
00000030: 894c d0bd 7353 743d 20f0 2d3e 7807 d0be
00000040: cdc5 c5be 9dea c3be 1a5f bcbd 2325 8d3e
00000050: 29ec 11be f98d cabe 4378 27be 3e76 45be
00000060: af44 5f3e ff3b 41be d70b 60bd c1ba 033e
00000070: 793f 52be 59a6 53be 5593 c7be c7e5 00be
00000080: 8f91 9fbd ce4f 4ebd 6e69 2cbc ffd4 c43e
00000090: 1b2e ac3e 5e6f 9e3e 7510 bbbd df65 0b3e
000000a0: e559 5cbd 3514 b2bc 3248 85be 39b4 15ba
000000b0: ec03 4a3e 04f0 abbe 542e be3d 65c7 ef3d
000000c0: b725 d2bd 4885 04be 558a b33e d22b ee3d
000000d0: 4d98 86bd aaa7 75be 72bb d8be ac16 3abd
000000e0: ac5f 53be d5dd 19be c34d c43d 1b0b b7be
000000f0: 1cf5 85be 8e00 86bd f41e 4abe 99ba 87bd
00000100: 295e 703e 05ae f03b 66a4 a4bd 8b13 333e
00000110: 2d04 ba3d 8fec 973e db80 883e 438e c13e
00000120: 2d85 803d 8dab fbbd fe4e 653e 3eee 64be
00000130: 549a 70bb eb9c 49be ce51 033e 04b5 4abe
00000140: 803d 3bbd d2a7 7b3d 6119 4b3e ce90 e9bc
00000150: 9186 19be 2f1f 973d 0d1c 383d f964 8a3d
00000160: 8d9b 50be 895d 02bf d49f c33c 81ae 2d3e
00000170: ab8f 833e ec2b 6239 6cc5 e8be c8e8 ef3d
00000180: dcfc 3d3c 3779 b53e 1fe7 b43e 09ad 66bd
00000190: ffcc 0abe 7d7d 193d 510c a8bd 77a2 9fbd
000001a0: b4b7 febb 0dd8 a33d 8d4e b9bd 3fd4 063e
000001b0: a1b2 94bd 3fb1 853b b8f9 003d 6812 50be
000001c0: 30d8 54be 2cb8 1e3d 73d0 293d 0787 c03d
000001d0: 9409 f53c da80 97bd a4a2 f03d d364 9a3c
000001e0: 3a82 4cbc 8c1c 67be a391 91be 6853 8c3e
000001f0: 89ed 98be 4cbc 533e fbf7 05bd 2620 973e
00000200: 6aef 8c3e 9351 c53e 8dc1 ac3e fbec d7bd
00000210: 4920 d53d 5331 4fbe 90a2 05be d344 2d3e
00000220: b0b6 2d3e 19b2 71be 9f24 a6be d0da 943d
00000230: 9b57 78be 40b2 a4bb 81d2 0ebf 8262 21be
00000240: 7187 3d3d fd83 f7be b2c7 eb3d 551e 9abd
00000250: bd8a d33d 66c6 b63c 78cf 0c3e 7d37 9c3d
00000260: 9750 303e d4cf 71be b02a 06bd 76c4 e2be
00000270: 2d0c c2be 8f1c f6bd 18c3 5b3d 4a73 a13c
00000280: e5ae 373e fa67 043e 8720 733e 3994 853b
00000290: d40a eebe b7dd db3d 8bf4 1e3e 4f25 dc3d
000002a0: 2264 b53e b5d5 ecbd 3e3f 66be 9c79 21bf
000002b0: 1a98 1ebe dc4a e13c 8665 943d 2cff c33d
000002c0: 1889 09be 1bea a1be 4eef 04bd bac5 34be
000002d0: eafb 583e 185a 353e f5ad bc3d c82f e2bd
000002e0: c586 e33b 4a18 653e 505e c83e faa5 373e
000002f0: 3610 a4be cae6 37bb 1f99 fabe 2eae 50be
00000300: c031 3b3e 6f4c 64be 3cec bdbe f9a9 bebe
00000310: dbfe cbbd c721 b53e 780c 793e 075e 24be
00000320: 4332 21bc 2d35 5f3e a81c b23d 17dd 18be
00000330: f058 cc3d 4a20 6f3e 35f8 c13e 70ea 61be
00000340: cfff b0be 56b7 e8be c35e 493e 9205 f9bd
00000350: 178c 6f3e b740 8dbe 7576 39be 0650 96be
00000360: be62 2cbe a63b 6f3d 0302 883e 250e c5bc
00000370: d2a6 1abf 3c4e c9be 4e4c 5e3e 92a0 913e
00000380: e0f3 573e b5c9 31be 728b 8a3d 925f 2cbe
00000390: c8d5 abbe 292c 35be bf66 173e 627b a13d
000003a0: dcde 9fbe ba72 103e 183f e63d 4010 0c3e
000003b0: b809 873e c510 85be 9c02 913e dd81 d43d
000003c0: dcdb 1b3e 315d 2bbd cdd4 66be 86f3 b13d
000003d0: 7a51 adbe 53ba 88bd 937c 0f3e 1889 cfbd
000003e0: 2de1 ca3e ae00 6dbe 3ee5 a43d 0be3 ecbd
000003f0: 09f2 1abe 8bc4 013e 6e5e 91be b92b 043e
