Medium Scale Test Coding fast privacy preserved deep learning/convolution1_weight_3.npy (npy, 6528 bytes, 1 tensors)

array f8 [32, 1, 5, 5]
00000000: 0000 5077 c0f5 4640 0000 2067 2581 4640
00000010: 0000 0021 58e6 48c0 0000 001b 0ad8 40c0
00000020: 0000 40e7 ad92 4540 0000 00c8 6227 48c0
00000030: 0000 b09f e7b4 5440 0000 0006 e788 55c0
00000040: 0000 c031 0d0b 3040 0000 0030 24bb 3ec0
00000050: 0000 1077 22f1 5140 0000 c096 795d 4b40
00000060: 0000 90c8 048d 48c0 0000 6864 5d78 46c0
00000070: 0000 0010 f856 2c40 0000 00ef 005a 51c0
00000080: 0000 4073 71b1 44c0 0000 80b1 0a9e 3640
00000090: 0000 a0f1 c50b 4ac0 0000 806e 6db9 31c0
000000a0: 0000 005c 4fb8 fd3f 0000 407e a3b2 45c0
000000b0: 0000 6008 ef94 44c0 0000 e063 57cc 52c0
000000c0: 0000 40d4 2ec8 33c0 0000 f0bf 134c 50c0
000000d0: 0000 48a1 fff8 4b40 0000 809f 22be 23c0
000000e0: 0000 20ef 479a 47c0 0000 9065 3acd 55c0
000000f0: 0000 a06a f258 56c0 0000 408e c6df 3340
00000100: 0000 e031 f213 3dc0 0000 707e 7286 4dc0
00000110: 0000 dcd2 5801 48c0 0000 00ff d4c4 2e40
00000120: 0000 a03c 7a6a 51c0 0000 c0eb cd53 5340
00000130: 0000 80c5 77a2 1b40 0000 4088 26dd 3ac0
00000140: 0000 9467 7103 56c0 0000 6a28 64c1 54c0
00000150: 0000 0038 dfea 0540 0070 bca4 f6bf 5540
00000160: 0000 00fb 8032 3140 0000 00fe 07aa 3840
00000170: 0000 8035 3ae8 3fc0 0000 283b 7e47 5140
00000180: 0000 48d2 6e79 5040 0000 0057 6f6f 4940
00000190: 0000 60b5 8e29 52c0 0000 20bd e28e 4f40
000001a0: 0000 8026 4c43 1cc0 0000 40f5 b41e 4dc0
000001b0: 0000 406e 171b 50c0 0000 b05a e802 56c0
000001c0: 0000 80f5 6b9a 49c0 0000 50dd 9d49 54c0
000001d0: 0000 186e 2286 5540 0000 a09c 1ea9 5840
000001e0: 0000 0070 d417 02c0 0000 7004 3084 56c0
000001f0: 0000 80de 4399 42c0 0000 90a9 7b88 4fc0
00000200: 0000 701d faf0 55c0 0080 fda8 87ff 50c0
00000210: 0000 3023 25c5 57c0 0000 a08e 9d69 46c0
00000220: 0000 98de 2f7a 54c0 0000 e091 fd92 5040
00000230: 0000 004a feee 1ec0 0000 c090 63b0 4340
00000240: 0000 605a efef 3ec0 0000 98a3 2278 5340
00000250: 0000 0081 588d 23c0 0000 4038 62e3 4b40
00000260: 0000 9526 3cc0 57c0 0000 b0ce 99cc 52c0
00000270: 0000 808c 2bdf 3bc0 0000 00bf 52cd 3740
00000280: 0000 00ec d905 4cc0 0000 489f ee03 5340
00000290: 0000 1096 b14c 5640 0000 c8bc 59fc 4b40
000002a0: 0000 20d2 3093 45c0 0000 8806 473b 54c0
000002b0: 0000 3470 e002 5940 0000 70b0 59f7 45c0
000002c0: 0000 0073 642f 1740 0000 80c4 2ec1 4fc0
000002d0: 0000 b080 f17c 47c0 0000 f017 25f5 52c0
000002e0: 0000 80d5 c741 3140 0080 7d45 1c00 2a40
000002f0: 0000 00b6 6274 38c0 0000 0019 fd1d 3c40
00000300: 0000 c0cd df0b 1c40 0000 e026 afd6 5440
00000310: 0000 e0e3 9cd6 5840 0000 90d0 6a0e 3fc0
00000320: 0000 e09f 5991 48c0 0000 e8eb cb04 4040
00000330: 0000 8862 4085 54c0 0000 0089 5d60 0f40
00000340: 0000 4c48 017f 4040 0000 d080 3d8a 4140
00000350: 0000 988b 357a 5340 0000 801f 6a43 2c40
00000360: 0000 c057 d3da 2f40 0000 043b e9fd 2bc0
00000370: 0000 2019 fc7d 51c0 0000 009a 0434 34c0
00000380: 0000 00e8 9395 2740 0000 407d 14f6 32c0
00000390: 0000 9883 4e05 4a40 0000 e0e0 1018 3c40
000003a0: 0000 a04c a807 3540 0000 c0e4 0fed 3840
000003b0: 0000 e0ea 7a38 54c0 0000 d0b2 59f6 23c0
000003c0: 0000 18f7 cdfc 3e40 0000 4037 8eb1 5640
000003d0: 0000 802e 37b7 3740 0000 00b4 2946 3140
000003e0: 0000 80c4 764c 39c0 0000 00b4 432c 17c0
000003f0: 0000 1420 e87d 5540 0000 0013 904b 3f40
00000400: 0000 80da 3b23 4740 0000 80c9 a862 3440
00000410: 0000 0073 3e53 2bc0 0000 d867 bf46 57c0
00000420: 0000 e0f6 5be5 35c0 0000 3015 f38c 50c0
00000430: 0000 0029 5a48 50c0 0000 d0b2 2bf5 50c0
00000440: 0000 002a 496a 4ec0 0000 800c d978 2ec0
00000450: 0000 206c 3b2b 5740 0000 0053 b276 4cc0
00000460: 0000 5086 7a30 5840 0000 8064 4901 32c0
00000470: 0000 c05f 4bdc 5040 0000 80a0 5828 35c0
00000480: 0000 3ce2 09fd 57c0 0000 00fa 07ef 15c0
00000490: 0000 903d 5e07 5440 0000 580d 2f3b 5740
000004a0: 0000 60a8 8ee5 33c0 0000 4033 27e9 1fc0
000004b0: 0000 00ef 9911 4640 0000 e8bb e1c4 5340
000004c0: 0000 20ed f569 4cc0 0000 40fd 1ccf 55c0
000004d0: 0000 00b0 2a86 f0bf 0000 80e2 4ec7 4240
000004e0: 0000 80e9 f99e 3740 0000 206e 3ce1 3040
000004f0: 0000 008c e16d 0840 0000 d832 7a7d 45c0
00000500: 0000 808d 28a4 2bc0 0000 a07f 46c8 5640
00000510: 0000 90f7 cdb0 57c0 0000 c76b 7aff 40c0
00000520: 0000 0060 a98f f83f 0000 70db bd8d 4340
00000530: 0000 b048 ef49 5740 0000 10ab 3d72 48c0
00000540: 0000 4084 acd6 5040 0000 5852 9978 5340
00000550: 0000 200c 9c31 5040 0000 0067 5e28 58c0
00000560: 0000 4003 d313 47c0 0000 b895 c281 5340
00000570: 0000 302c a344 5740 0000 c0f2 3f0c 4440
00000580: 0000 0023 3191 45c0 0000 80f2 0aaf 3840
00000590: 0000 707a 2704 45c0 0000 00dd 625a 2ec0
000005a0: 0000 407d 1f9b 4740 0000 80a1 55cb 5540
000005b0: 0000 c082 d4d0 29c0 0000 407e 11c7 54c0
000005c0: 0000 506c 380e 0040 0000 a084 518e 5640
000005d0: 0000 00d8 d09b 3cc0 0000 8081 16d2 31c0
000005e0: 0000 0094 dfb7 1240 0080 b2f9 2d40 57c0
000005f0: 0000 0008 372b f83f 0000 201d f5b2 5240
00000600: 0000 00e4 4cf4 55c0 0000 0091 b31b 1b40
00000610: 0000 00f1 8450 4740 0000 c081 55d0 4e40
00000620: 0000 d8f6 5fc6 56c0 0000 e038 a416 5640
00000630: 0000 8038 6f70 55c0 0000 00f9 a15b 1340
00000640: 0000 7a9b bd7e 4e40 0000 a0a5 e69b 4040
00000650: 0000 8035 def4 48c0 0000 70d1 8dc9 53c0
00000660: 0000 003c 1633 2e40 0000 c0f6 1be2 40c0
00000670: 0000 60f9 c0e7 56c0 0000 0000 4e3d ccbf
00000680: 0000 c0f3 3f2c 48c0 0000 00ac 6ed1 15c0
00000690: 0000 60d8 2b99 4340 0000 e0a6 6ff0 4940
000006a0: 0000 903e 0731 54c0 0000 20e9 57ae 5340
000006b0: 0000 b098 68f4 5540 0000 0003 284b 38c0
000006c0: 0000 20d4 3975 5540 0000 d022 86f8 49c0
000006d0: 0000 8001 0144 3440 0000 6cc7 ebfc 4d40
000006e0: 0000 80b4 a966 54c0 0000 8038 d6e6 5140
000006f0: 0000 00d9 d990 2bc0 0000 0024 4123 1140
00000700: 0000 0084 01e5 42c0 0000 509b 1c0b 57c0
00000710: 0000 905b 5484 5140 0000 c00d 746a 4940
00000720: 0000 0020 57af 0ac0 0000 703d adb4 5040
00000730: 0000 e0d7 ec12 4040 0000 e049 e875 45c0
00000740: 0000 00dc de9f 2ac0 0000 00a3 c6b7 23c0
00000750: 0000 c0f8 3147 5740 0000 0040 108c 1c40
00000760: 0000 0020 d9e3 0dc0 0000 60e7 5daf 5440
00000770: 0000 8053 2052 5440 0000 80ee 406a 1040
00000780: 0000 0012 12b2 21c0 0000 10d3 b50a 3fc0
00000790: 0000 4033 b539 38c0 0000 a0c7 e074 42c0
000007a0: 0000 0086 ae52 2b40 0000 d05a 7477 4840
000007b0: 0000 30c9 f7c8 5740 0000 40b7 8379 5040
000007c0: 0000 c0b4 47cd 46c0 0000 00ae 00ed 10c0
000007d0: 0000 e053 4e8a 4640 0000 b030 ce8e 40c0
000007e0: 0000 00dc 3794 fd3f 0000 a06e c7ef 46c0
000007f0: 0000 8064 a85b 4740 0000 90bb 4248 5340
45.91993609815836 45.00895394384861 -49.799564480781555 -33.68780839443207 43.145932108163834 -48.30770206451416 82.8266371935606 -86.13910055160522
16.04317007958889 -30.7310209274292 71.76772858202457 54.730273097753525 -49.101708479225636 -44.940350104123354 14.169861316680908 -69.4063069820404
-41.386274725198746 22.617350667715073 -52.09197826683521 -17.72432604432106 1.8574975579977036 -43.39561441540718 -41.163544699549675 -75.19283387064934
-19.78196455538273 -65.18870542943478 55.945301208645105 -9.871357902884483 -47.20532025396824 -87.20668925344944 -89.3897959291935 19.874123468995094
-29.077914349734783 -59.0503690764308 -48.01052318327129 15.384437531232834 -69.66371074318886 77.30944341421127 6.908660016953945 -26.863869205117226
-88.05379666760564 -83.02173815108836 2.7396835684776306 86.99942892458057 17.19728058576584 24.66418445110321 -31.90713819861412 69.11707953363657
65.89738900214434 50.870585322380066 -72.64933523535728 63.116294518113136 -7.0657201781868935 -58.23989740014076 -64.4233050942421 -88.04543177783489
-51.20641964673996 -81.15026028454304 86.09585144370794 98.64249339699745 -2.261635661125183 -90.06543074548244 -37.1973837018013 -63.066273875534534
-87.76526580750942 -67.99265503650531 -95.080391690135 -44.82512076199055 -81.90917172282934 66.29672667384148 -7.733391910791397 39.37803849577904
-30.93724598735571 77.87711419910192 -9.776065856218338 55.77643492817879 -95.00367130804807 -75.19688765704632 -27.87175825238228 23.802043855190277
-56.04571294784546 76.0614393427968 89.19833900034428 55.97148856893182 -43.14992739260197 -80.9262100532651 100.04494862630963 -43.93242459744215
5.7962816208601 -63.50923973321915 -46.976120077073574 -75.83038900792599 17.256955474615097 13.000215694017243 -24.454631209373474 28.117143213748932
7.01159593090415 83.35444042086601 99.35332581400871 -31.05631736293435 -49.13554762303829 32.03747319057584 -82.08205474168062 3.9220534041523933
32.99222663603723 35.080001927912235 77.90951814502478 14.131669029593468 15.927393667399883 -13.995920032728463 -69.9685118496418 -20.203195214271545
11.792144060134888 -18.961250141263008 52.0414585582912 28.094007544219494 21.029911793768406 24.92602376639843 -80.88250228762627 -9.981153095141053
30.987517779693007 90.774305164814 23.71568575501442 17.274073839187622 -25.298687249422073 -5.793227016925812 85.96729280427098 31.29516714811325
46.27526408433914 20.385387986898422 -13.662585824728012 -93.10543247312307 -21.895934514701366 -66.2023365944624 -65.13050293922424 -67.83079214394093
-60.830357789993286 -15.236030951142311 92.67550185322762 -56.92731702327728 96.7574783116579 -18.005026131868362 67.4421004652977 -21.157602339982986
-95.95372825488448 -5.483428865671158 80.11512698233128 92.92474683374166 -19.89670803397894 -7.977688599377871 44.13751018047333 79.07627771049738
-56.82781757414341 -87.23614436388016 -1.0327555537223816 37.55709487199783 23.621000856161118 16.879828341305256 3.0536528527736664 -42.980291705578566
-13.820621892809868 91.12930288910866 -94.76257123053074 -33.99592349259183 1.5350736379623413 39.1073564812541 93.15522973239422 -48.89250696450472
67.35427957773209 77.88435801118612 64.77514937520027 -96.63076186180115 -46.154877096414566 78.02750151604414 93.07245926558971 40.09570154547691
-43.13431203365326 24.683760792016983 -42.032454781234264 -15.17653551697731 47.21189847588539 87.17710149288177 -12.907871328294277 -83.11044269800186
2.0069435560144484 90.2237254679203 -28.60865545272827 -17.820655912160873 4.679563820362091 -93.00280611449853 1.5105505287647247 74.79621055722237
-87.81719303131104 6.77705217897892 46.62905704975128 61.627609461545944 -91.09960719197989 88.35377332568169 -85.75678837299347 4.839485064148903
60.99016135651618 33.21797628700733 -49.91303128004074 -79.14928089082241 15.09977900981903 -33.76647838950157 -91.62115320563316 -0.22062087059020996
-48.3457016646862 -5.454523742198944 39.1966505497694 51.87840734422207 -80.7660671621561 78.724115639925 87.8188840597868 -24.293579280376434
85.83165457844734 -51.94159350544214 20.26564034819603 59.975945403799415 -81.60410797595978 71.60682499408722 -13.78291204571724 4.284428179264069
-37.789108753204346 -92.17362101376057 70.06764878332615 50.83166667819023 -3.335615396499634 66.8230737298727 32.14785288274288 -42.921151384711266
-13.312247157096863 -9.858937352895737 93.1124250292778 7.136780738830566 -3.7362539768218994 82.74010643362999 81.28322303295135 4.103763319551945
-8.847794115543365 -31.04183692112565 -24.225421145558357 -36.91310973465443 13.661487758159637 48.93323836475611 95.14012365043163 65.89866429567337
-45.60375079512596 -4.231447905302048 45.08051536977291 -33.115667425096035 1.848686084151268 -45.87327368557453 46.7160764336586 77.12907303869724
