Medium Scale Test Coding fast privacy preserved deep learning/fc_weight.npy (npy, 125568 bytes, 1 tensors)

array f4 [10, 3136]
00000000: 4abf 293d a768 b3bd 58bc a63c 273c be3c
00000010: 8ba9 8e3b b980 943d 50ef 0d3e 57e9 2fbc
00000020: 576b f03b 2b8d 553d 5b99 963d 8364 1e3e
00000030: a78f bb3d fc9b ae3c 8083 14bc a472 38bd
00000040: c506 86bd e3f5 7bbd 3ad6 5cbe 935d 21be
00000050: 92e6 bcbd 6f0f 30be 3307 57be bc9c ecbe
00000060: 4e37 dabd 203c 5f3d 7cfe 9a3d 79fc 15be
00000070: 82c7 75be 1323 f2be 816e 04bf 0537 f63c
00000080: 08e3 0c3e e617 2cbd c762 1d3c 4518 33bc
00000090: 6e0f a3bd 7353 72bd 90e7 da3d 8cbc e53d
000000a0: ca08 543d 665c 953b 5b3f d03d 4a48 ddbc
000000b0: 3eb9 933d 81ea d83c b8d7 d73c 03e3 d8bc
000000c0: 1e42 c1bd 6680 80bd 7ed0 72be c5b7 abbd
000000d0: 5b59 54bd bcbb 51bd 54af 413d 0bc2 473d
000000e0: 2621 9abc 3a4f f33d efc2 023d d253 c6bd
000000f0: 1f70 223e e04d d3bc 66a8 1f3e cc56 bbbc
00000100: 8e80 ddbc d563 933d e6e2 a4bd c74b 1abd
00000110: eb6b 9ebd 4c5e 2b3e a8ca cabc 86ca 54be
00000120: 0e24 e5bb bfbd 91be 19ce 92bd f619 b1bc
00000130: f4a5 163e abb9 8abe e84f d3bd c2a4 25bd
00000140: ecba 223d e9e6 a13a f6c5 fd3d feaf 213c
00000150: 81e0 2dbe 777e e6bd fcf9 203b 172d f13c
00000160: 1556 47bd bc50 32bd 71f1 11bd 3950 593d
00000170: 1d93 8b3e 4340 03be 52d7 86bd d08e 0f3e
00000180: 89b2 8fbd 4ab3 e7bc b02c 68bc bbcd e5bc
00000190: f343 50bb a946 a8bc 965d 67bd 02eb afbb
000001a0: 9517 92bb 02bd f3bd 3b9e 6dbd ec3e b03c
000001b0: 783e 32be 558d b1bd 5ff9 163c 7514 323e
000001c0: f91f b3be 2012 f13b f8c0 87bd 18be 80b9
000001d0: 7f53 c1bd 5008 e6bc d8ae ff3c 896e aebd
000001e0: 527e 06be aaff 16be 9b30 1cbe f9a1 46bd
000001f0: 7a15 7dbe a899 b4bd a56b 90bc e17f 6c3d
00000200: 2027 55bc af79 f43d f8a8 403d 0376 eb3c
00000210: fa00 13bd 956e d0bb 02df 9ebd 8071 da3d
00000220: 46db 9d3d 133f 053e 783e 30bc 012d 25bd
00000230: fdb4 2fbd 8f90 25be 607b e6bd a6f2 4fbe
00000240: 5f3c babe 48c0 80be fa52 d3bd a9a3 0ebe
00000250: 9d3d d1bd 52d9 95bd 7e16 5dbe cd8f 2d3d
00000260: b0c4 ffbb fea7 03be dcee e7bc 02fd 0a3d
00000270: 9526 1fbd 0405 053e 9642 bdbd 7446 4c3d
00000280: 24b2 7fbe 160d 6f3c b526 5abd d697 6bbc
00000290: 3041 a3bd 7fac ef3d 17ef 023e fb07 433c
000002a0: da55 f2b9 3b2a 69bc 19c0 abbd 4a09 523c
000002b0: ad14 0f3e 6353 693c 1976 9ebc 32ff f1bc
000002c0: f1e6 1cbd 5a3f 10be 03ec dcbd 06ad 253e
000002d0: 99f8 8bbd e31e 32be d03f 54bd 0b0d 903d
000002e0: 3732 c63d c682 d1bd 9b1c 7f3d 57fd d8bd
000002f0: 74fb 9cbd 12d7 8dbb 63de 783d 1af4 01bd
00000300: 9596 96bd cb93 c3bd 3b08 d6bd 9a62 88bd
00000310: 6ed7 afbc 1aab 48bd 4a7f 9f3d 9758 d0bc
00000320: f1af ecbb 0fb9 e3ba 1781 de3c e441 0d3d
00000330: 9b19 1e3b 3ecb bd3d 16c5 ad3c 5840 00be
00000340: 3401 b1be be5c 87be 35c8 4a3d b7df b23d
00000350: 421a 5c3d 6d60 70be 8839 c5bd 972c febd
00000360: 0735 bdbe 82a6 b6bc 989d de3d a6a6 c7bd
00000370: 4dcb 2e3d 2b8a bc3b 099c 0bbe bad7 8f3d
00000380: a3af f6bd 3cf2 45be f208 18be 7704 cebc
00000390: 8c2f 073e b53c 373e 7d4c fb3d 4a0f 8ebe
000003a0: 813b ecbe 647c 67be 5410 3e3e 4632 173e
000003b0: 9ffe f53d 74ba 013d 5109 a4bc 9621 93bd
000003c0: 1c57 9cbc 4048 953d 546f a03d c96c e9bd
000003d0: 95a5 3abd d2f5 433c cdb8 6bbd 9427 fb3c
000003e0: c20c 5fbc c322 993c b93e 49bd 74fa a53d
000003f0: 400c 5d3b 9f4b b5bb 9887 2bbe 1ba4 10bd
0.041442193 -0.08760195 0.020353481 0.023222042 0.004353707 0.072511144 0.13860822 -0.010736785
0.0073370147 0.05213658 0.07353469 0.1546803 0.09158259 0.021314614 -0.009064555 -0.045031205
-0.0654426 -0.061513793 -0.21566096 -0.15758352 -0.09223665 -0.17193387 -0.2099884 -0.4621333
-0.1065508 0.0545007 0.0756807 -0.14647092 -0.24001887 -0.47292385 -0.51731116 0.030055532
0.1375848 -0.04201498 0.00960607 -0.010931079 -0.07961927 -0.059161615 0.10688698 0.11217603
0.051766194 0.004558134 0.10168334 -0.02701201 0.072130665 0.026479008 0.02634798 -0.026475435
-0.09436439 -0.0627449 -0.23712346 -0.08384661 -0.05184303 -0.051204428 0.047286347 0.04876904
-0.018814635 0.11880346 0.031924184 -0.09683956 0.15863083 -0.02579397 0.15591583 -0.022868536
-0.027038839 0.07196776 -0.0805109 -0.037669923 -0.077354275 0.1673519 -0.024754837 -0.20780382
-0.0069928234 -0.28465077 -0.07168216 -0.021618824 0.14711744 -0.27094778 -0.10317975 -0.04044033
0.039729044 0.0012352142 0.12391274 0.00986862 -0.16980173 -0.1125459 0.0024563065 0.029440446
-0.04866608 -0.043534026 -0.035630647 0.053055022 0.27260676 -0.12817483 -0.06584038 0.14019322
-0.07016475 -0.028283734 -0.014170811 -0.028052201 -0.0031778782 -0.020541506 -0.056485735 -0.0053685913
-0.0044583776 -0.11901285 -0.05801223 0.021514378 -0.17406642 -0.08669535 0.009214728 0.17390616
-0.3498533 0.007356897 -0.06628603 -0.00024555693 -0.09439754 -0.028080136 0.031211302 -0.08517177
-0.13134125 -0.14745966 -0.15252917 -0.048494313 -0.24715224 -0.0881837 -0.017629454 0.057739142
-0.013009816 0.11937272 0.04703614 0.028742796 -0.035889603 -0.0063608387 -0.07757379 0.1066618
0.07707839 0.13012342 -0.010757081 -0.040326122 -0.042897213 -0.16168426 -0.11254001 -0.20307407
-0.36374184 -0.251467 -0.10318561 -0.13929619 -0.1021683 -0.07316841 -0.21590611 0.042373467
-0.0078054294 -0.12857053 -0.02831214 0.033932693 -0.038855154 0.12990195 -0.09241216 0.049871877
-0.24970299 0.014590522 -0.05325957 -0.014379462 -0.07971418 0.11702823 0.12786518 0.011903758
-0.000462218 -0.01423126 -0.08386249 0.0128195975 0.13972731 0.014241072 -0.019343423 -0.029540632
-0.03830618 -0.14086667 -0.10787203 0.16179284 -0.068345256 -0.17394595 -0.05181867 0.07033738
0.096775465 -0.10230021 0.06228314 -0.10595196 -0.076651484 -0.004328617 0.06075896 -0.031726934
-0.0735294 -0.09549674 -0.104507886 -0.06659432 -0.02146503 -0.0489913 0.0778795 -0.025432868
-0.0072231223 -0.0017373877 0.027161164 0.034486666 0.0024124149 0.09267281 0.021212142 -0.12524545
-0.3457123 -0.26437944 0.04950734 0.087340765 0.05373598 -0.23474284 -0.09630114 -0.124108486
-0.3695452 -0.022296194 0.10869902 -0.097485825 0.04267435 0.0057537756 -0.13633741 0.070235685
-0.12045219 -0.19330686 -0.14847162 -0.025148613 0.13201731 0.17894252 0.12270448 -0.2774604
-0.46139148 -0.22606045 0.18560916 0.14765272 0.12011456 0.031671956 -0.020023974 -0.071841404
-0.019084506 0.07289171 0.07833734 -0.11397702 -0.045568068 0.011960464 -0.057549287 0.03065852
-0.013613882 0.018693333 -0.049132083 0.08104411 0.0033729225 -0.0055326964 -0.16750944 -0.035312753
