Medium Scale Test Coding fast privacy preserved deep learning/fc_weight_1.npy (npy, 251008 bytes, 1 tensors)

array f8 [10, 3136]
00000000: 0000 28fd a642 5540 0000 3845 9bc5 53c0
00000010: 0000 b078 4d81 5340 0000 640f 07fd 48c0
00000020: 0000 1653 1d01 3340 0000 900b 4809 4740
00000030: 0000 0016 426e 46c0 0000 aed2 5f81 46c0
00000040: 0000 a994 0f7f 44c0 0000 54cb a9fc 53c0
00000050: 0000 506a 9676 42c0 0000 6090 cc93 4240
00000060: 0000 4016 1cd1 21c0 0000 f837 5d41 5840
00000070: 0000 000e 5202 34c0 0000 2095 c385 4fc0
00000080: 0000 a0d8 c010 35c0 0000 8cd7 ef03 53c0
00000090: 0000 a063 cd0d 57c0 0000 30d9 154a 56c0
000000a0: 0000 2069 ce0b 44c0 0000 e0ed 0196 47c0
000000b0: 0000 60e6 e09a 41c0 0000 005e 4e76 3ac0
000000c0: 0000 70ba d186 51c0 0000 007c 18e4 27c0
000000d0: 0000 8030 a0ec 32c0 0000 c0e1 80da 3240
000000e0: 0000 40f0 b89e 43c0 0000 6062 445e 57c0
000000f0: 0000 c05f e49e 5540 0000 f691 13be 52c0
00000100: 0000 8030 ce08 5040 0000 4003 7dea 2340
00000110: 0000 c762 9dc0 5740 0000 ec9e 33fd 3740
00000120: 0000 4012 9eeb 3b40 0000 6864 6df8 4240
00000130: 0000 00f2 5c1b 3340 0000 60e4 2d47 5240
00000140: 0000 4019 811a 2c40 0000 a039 aaf6 07c0
00000150: 0000 b0f5 030d 4940 0000 b0bd 15f9 3d40
00000160: 0000 003e b993 0840 0000 fc55 9cfc 43c0
00000170: 0000 807b 7d0d 2c40 0000 06c6 b141 52c0
00000180: 0000 10ef f579 5440 0000 3003 0484 58c0
00000190: 0000 e007 2d0f 53c0 0000 28be 5d05 54c0
000001a0: 0000 6c65 5183 50c0 0000 2022 7279 4740
000001b0: 0000 6085 f279 49c0 0000 5810 3e86 4f40
000001c0: 0000 3009 d104 3bc0 0000 40e7 691e 3f40
000001d0: 0000 44f4 f43d 55c0 0000 e0c2 9af3 4440
000001e0: 0000 c007 9c28 3b40 0000 80c8 b27c 4640
000001f0: 0000 40f3 0a6c 47c0 0000 305b ed02 48c0
00000200: 0000 e4fe 44fe 5040 0000 58e1 647b 53c0
00000210: 0000 8046 c7d6 2f40 0000 385e d284 49c0
00000220: 0000 585f f3c4 54c0 0000 0093 d72a 3440
00000230: 0000 4055 5606 35c0 0000 00e8 d5ac fc3f
00000240: 0000 f2db 1a7f 4040 0000 c06f 6fa4 4bc0
00000250: 0000 701e d376 4240 0000 14cc 9d3e 5540
00000260: 0000 8041 2bed 48c0 0000 00ab b98a 26c0
00000270: 0000 00fd 691a 3fc0 0000 f0d9 d2fa 4240
00000280: 0000 0028 8aba eebf 0000 d2cd 4301 1c40
00000290: 0000 605f dc0f 4640 0000 04a0 bc7e 4ac0
000002a0: 0000 1008 deca 54c0 0000 c09d 9f39 26c0
000002b0: 0000 0406 5fff 3fc0 0000 902e edf0 2dc0
000002c0: 0000 00d6 5371 ee3f 0000 40f4 daf4 3e40
000002d0: 0000 c0a3 83db 1f40 0000 e440 6503 5140
000002e0: 0000 c038 1b5d 4fc0 0000 3004 3488 56c0
000002f0: 0000 7045 c97b 5840 0000 0013 07b7 55c0
00000300: 0000 2051 f611 3fc0 0000 d832 61fc 4d40
00000310: 0000 a0a6 2ffe 4c40 0000 60b7 b91c 10c0
00000320: 00c0 fc10 34c0 52c0 0000 a41a a102 44c0
00000330: 0000 5876 9d83 50c0 0000 02eb af00 47c0
00000340: 0000 9517 9200 47c0 0000 20d0 3b0f 44c0
00000350: 0000 280e 9378 4540 0000 b0fb c082 4140
00000360: 0000 0020 0637 fd3f 0000 a0aa 3116 38c0
00000370: 0000 e02b df12 0840 0000 c0e2 7ad3 30c0
00000380: 0000 c001 38d3 4640 0000 2012 f180 4340
00000390: 0000 40f8 c1fb 5540 0000 e841 7fff 0740
000003a0: 0000 f037 158c 4ac0 0000 60ef 333e 5340
000003b0: 0000 b05d ffc1 5440 0000 7017 1975 4c40
000003c0: 0000 20e5 6708 50c0 0000 00d5 7f4b 2cc0
000003d0: 0000 6013 8613 46c0 0000 e0c0 2be7 2740
000003e0: 0000 805e 453f 3fc0 0000 00cb 6ce9 3e40
000003f0: 0000 50ba 0609 2ac0 0000 f001 38f1 3bc0
00000400: 0000 809c 5403 3dc0 0000 4094 e1c2 2bc0
00000410: 0000 00f8 a8c0 f03f 0000 fa13 297e 54c0
00000420: 0000 30f8 67fb 4540 0000 d622 5ffe 3840
00000430: 0000 f007 09fb 5140 0000 00e8 58f2 43c0
00000440: 0000 4097 44ec 37c0 0000 c0c4 4f21 3340
00000450: 0000 2006 3ffd 3840 0000 0868 2985 49c0
00000460: 0000 1858 827a 4f40 0000 c023 6429 31c0
00000470: 0000 0025 cc38 5140 0000 602a ff8c 58c0
00000480: 0000 40e8 7051 4b40 0000 0012 30a0 4ec0
00000490: 0000 60d0 caf2 4640 0000 e08a 2bee 4a40
000004a0: 0000 3026 ec72 4040 0000 7035 51fb 5840
000004b0: 0000 e067 d14d 56c0 0000 ccc0 49fd 56c0
000004c0: 0000 58e2 7f40 57c0 0000 4000 8bef 4c40
000004d0: 0000 b8dd cf81 52c0 0000 80bf 40dd 1fc0
000004e0: 0000 a834 f904 42c0 0000 80a0 a010 4940
000004f0: 0000 50eb 153a 5540 0000 30e6 ce7c 58c0
00000500: 0000 8044 f69f 40c0 0000 5097 87f8 2dc0
00000510: 0000 a835 d106 4dc0 0000 2a68 147f 5640
00000520: 0000 00ed cbf5 4540 0000 c01f eb3b 2e40
00000530: 0000 201d a26f 4bc0 0000 fb07 c340 5540
00000540: 0000 ed2a 7900 1cc0 0000 3b2a e9c0 51c0
00000550: 0000 2003 7815 3bc0 0000 b0b5 6ff9 2bc0
00000560: 0000 80a9 75b8 2fc0 0000 c6a6 d201 4a40
00000570: 0000 32ec 3c81 55c0 0000 c8fc c703 45c0
00000580: 0000 c49b 7342 55c0 0000 80d6 0f24 31c0
00000590: 0000 30c0 ce0d 4ec0 0000 c0a0 b594 4d40
000005a0: 0000 383b a0bb 5040 0000 00e3 1eb2 1cc0
000005b0: 0000 40ff 50c3 51c0 0000 5868 8004 5240
000005c0: 0000 90dc 9cf3 48c0 0000 d0e9 7339 5640
000005d0: 0000 5036 0ef0 3cc0 0000 0057 fdd8 00c0
000005e0: 0000 6024 18fb 5440 0000 485c 3702 28c0
000005f0: 0000 d019 72f0 3bc0 0000 982f f83d 5240
00000600: 0000 584b 4bfb 5640 0000 589e 1cc6 58c0
00000610: 0000 b083 600d 43c0 0000 c0ac f3ee 3540
00000620: 0000 4012 05ea 1b40 0000 30a7 baf9 4640
00000630: 0000 80d2 df27 2040 0000 2eb1 a081 54c0
00000640: 0000 f1af ec80 42c0 00c0 43ee 3800 48c0
00000650: 0000 e022 d01b 1840 0000 e0f0 95fb 40c0
00000660: 0000 9b19 9e00 3540 0000 204c 23f4 4ac0
00000670: 0000 2c8a 5bc1 5840 0000 00f5 f76f 4d40
00000680: 0000 004d 402c 44c0 0000 00be 5c87 2ac0
00000690: 0000 5083 ac0c 3340 0000 2009 a4e9 3ac0
000006a0: 0000 f02d 1f79 43c0 0000 30f9 f970 5640
000006b0: 0000 40cc 29c6 52c0 0000 b864 f147 56c0
000006c0: 0000 40be b250 4440 0000 fcb2 92fe 5440
000006d0: 0000 80d9 e98d 4540 0000 402b 0be7 3a40
000006e0: 0000 685a 7685 4a40 0000 a8ae 1bfa 1bc0
000006f0: 0000 703f 46b7 5640 0000 d0bd 7e84 5840
00000700: 0000 802e a884 1b40 0000 40dc a0b3 5140
00000710: 0000 e070 7f36 5840 0000 24ee c7fc 4e40
00000720: 0000 008c 2f87 1040 0000 402d cf2d 3340
00000730: 0000 e863 dac7 5640 0000 00b6 f071 2f40
00000740: 0000 e08f 7822 5540 0000 c039 8831 5040
00000750: 0000 c0fa 1e74 50c0 0000 8091 cc25 3540
00000760: 0000 804f ff7a 1440 0000 804e 3710 2e40
00000770: 0000 78b5 dffa 3f40 0000 8065 c824 2ec0
00000780: 0000 c851 c73e 5340 0000 0080 6fd5 febf
00000790: 0000 40f5 060a 4040 0000 b899 b4b8 5340
000007a0: 0000 5496 eac2 50c0 0000 b828 f0fc 35c0
000007b0: 0000 4033 ee3a 14c0 0000 d8b0 093e 58c0
000007c0: 0000 3ef3 20ff 5740 0000 0c8b 6402 4440
000007d0: 0000 805c 9f64 08c0 0000 0074 faa5 0040
000007e0: 0000 0078 5ee4 efbf 0000 9f4b b500 47c0
000007f0: 0000 00cc c355 2cc0 0000 946f bd3d 5540
85.04144219309092 -79.08760195225477 78.02035348117352 -49.97677795775235 19.004353707190603 46.07251114398241 -44.86139178276062 -45.010736784897745
-40.992662985343486 -79.9478634186089 -36.926465310156345 37.15468029677868 -8.908417411148548 97.0213146135211 -20.009064555168152 -63.04503120481968
-21.065442599356174 -76.06151379272342 -92.2156609594822 -89.1575835198164 -40.092236652970314 -47.17193387448788 -35.20998840034008 -26.462133288383484
-70.10655079782009 -11.945499300956726 -18.92431929707527 18.853529080748558 -39.240018874406815 -93.47292384505272 86.48268884420395 -74.96994446776807
64.13758480548859 9.957985021173954 95.0096060698852 23.989068920724094 27.920380726456642 37.940838385373354 19.106886982917786 73.11217603087425
14.051766194403172 -2.995441866107285 50.1016833409667 29.97298799082637 3.0721306651830673 -39.973520992323756 14.026347979903221 -73.02647543512285
81.90563561022282 -98.06274490058422 -76.23712345957756 -80.08384660631418 -66.05184302851558 46.948795571923256 -50.952713653445244 63.048769038170576
-27.018814634531736 31.118803456425667 -84.96807581558824 41.90316043794155 27.158630833029747 44.974206030368805 -46.84408417344093 -48.022868536412716
67.97296116128564 -77.92803224176168 15.919489100575447 -51.0376699231565 -83.07735427469015 20.16735190153122 -21.024754837155342 1.7921961843967438
32.99300717655569 -55.28465077280998 36.928317837417126 84.97838117554784 -49.85288256406784 -11.27094778418541 -31.10317975282669 37.95955967158079
-0.960270956158638 7.00123521417845 44.12391273677349 -52.99013138003647 -83.1698017269373 -11.112545900046825 -31.99754369352013 -14.970559554174542
0.9513339214026928 30.95646597445011 7.964369352906942 68.05305502191186 -62.72739323973656 -90.1281748265028 97.93415962159634 -86.85980677604675
-31.070164747536182 59.97171626612544 57.985829189419746 -4.0280522014945745 -75.00317787821405 -40.020541505888104 -66.05648573487997 -46.00536859128624
-46.00445837760344 -40.11901284754276 42.94198777154088 35.021514378488064 1.825933575630188 -24.086695350706577 3.009214728139341 -16.826093837618828
45.65014669299126 39.0073568969965 87.93371397256851 2.9997544430661947 -53.09439753741026 76.97191986441612 83.03121130168438 56.91482823342085
-64.13134124875069 -14.147459656000137 -44.152529165148735 11.951505687087774 -31.247152239084244 30.91181629896164 -13.017629453912377 -27.9422608576715
-29.013009816408157 -13.880627281963825 1.0470361411571503 -81.9712572041899 43.964110396802425 24.993639161344618 71.92242620885372 -39.893338203430176
-23.922921612858772 19.130123421549797 24.989242918789387 -51.04032612219453 62.9571027867496 -17.1616842597723 68.88745999336243 -98.20307406783104
54.6362581551075 -61.25146698951721 45.89681439101696 53.86070381104946 32.897831700742245 99.92683158814907 -89.21590611338615 -91.95762653276324
-93.00780542939901 57.8714294731617 -74.02831213921309 -7.966067306697369 -36.03885515406728 50.12990194559097 84.90758784115314 -97.95012812316418
-33.249702990055084 -14.985409477725625 -58.05325957015157 89.98562053777277 43.920285820961 15.11702822893858 -54.87213481962681 85.01190375816077
-7.000462218013126 -71.0142312599346 -27.083862490952015 -13.987180402502418 -15.860272690653801 52.01424107234925 -86.0193434227258 -42.0295406319201
-85.03830618038774 -17.140866667032242 -60.107872031629086 59.16179284453392 66.93165474385023 -7.17394594848156 -71.05181866884232 72.07033737748861
-49.90322453528643 88.89769978821278 -28.937716860324144 -2.1059519574046135 83.92334851622581 -12.004328616894782 -27.93924104049802 72.96827306598425
91.92647060006857 -99.09549673646688 -38.10450788587332 21.933405682444572 6.97853497043252 45.95100869983435 8.077879503369331 -82.02543286792934
-37.00722312228754 -48.001737387734465 6.027161164209247 -33.965513333678246 21.002412414876744 -53.90732719004154 99.02121214196086 58.874754548072815
-40.345712304115295 -13.264379441738129 19.049507338553667 -26.912659235298634 -38.946264021098614 89.76525716483593 -75.09630113840103 -89.12410848587751
40.63045480847359 83.97770380601287 43.1086990237236 26.902514174580574 53.04267435148358 -6.994246224407107 90.86366258561611 98.07023568451405
6.8795478120446205 70.80669313669205 96.85152837634087 61.974851386621594 4.1320173144340515 19.178942516446114 91.12270448356867 15.722539603710175
84.53860852122307 64.77393954992294 -65.81439083814621 21.147652715444565 5.120114557445049 15.031671956181526 31.97997602634132 -15.071841403841972
76.98091549426317 -1.9271082878112793 32.07833734154701 78.88602297753096 -67.04556806758046 -21.98803953640163 -5.05754928663373 -96.96934147924185
95.98638611845672 40.01869333349168 -3.0491320826113224 2.0810441076755524 -0.996627077460289 -46.005532696377486 -14.16750943660736 84.96468724682927
