simple_mnist/ckpt.pth (torch, 335831 bytes, 6 tensors)

conv.0.weight f4 [32, 1, 5, 5]
0	0xbda3f88b	-0.0800639
1	0x3c12b390	0.008953944
2	0x3e4d3ef8	0.20043552
3	0x3e9fd794	0.3121916
4	0x3e156f3a	0.14593211
5	0xbe9d8b20	-0.30770206
6	0xbe318605	-0.1733628
7	0xbe0e7060	-0.13910055
8	0x3d30d31c	0.04317008
9	0x3e89b7a0	0.26897907
10	0xbe6dd88f	-0.23227142
11	0xbe8a19a5	-0.2697269
12	0xbdd04c89	-0.10170848
13	0x3d745373	0.059649896
14	0x3e2df020	0.16986132
15	0xbed00778	-0.40630698
16	0xbec5c5cd	-0.38627473
17	0xbec3ea9d	-0.38264933
18	0xbdbc5f1a	-0.09197827
19	0x3e8d2523	0.27567396
20	0xbe11ec29	-0.14250244
21	0xbeca8df9	-0.39561442
22	0xbe277843	-0.1635447
23	0xbe45763e	-0.19283387
24	0x3e5f44af	0.21803544
25	0xbe413bff	-0.18870543
26	0xbd600bd7	-0.05469879
27	0x3e03bac1	0.1286421
28	0xbe523f79	-0.20532025
29	0xbe53a659	-0.20668925
30	0xbec79355	-0.38979593
31	0xbe00e5c7	-0.12587653
32	0xbd9f918f	-0.07791435
33	0xbd4e4fce	-0.050369076
34	0xbc2c696e	-0.010523183
35	0x3ec4d4ff	0.38443753
36	0x3eac2e1b	0.33628926
37	0x3e9e6f5e	0.3094434
38	0xbdbb1075	-0.09133998
39	0x3e0b65df	0.1361308
40	0xbd5c59e5	-0.053796668
41	0xbcb21435	-0.021738151
42	0xbe854832	-0.26031643
43	0xba15b439	-0.0005710754
44	0x3e4a03ec	0.19728059
45	0xbeabf004	-0.33581555
46	0x3dbe2e54	0.0928618
47	0x3defc765	0.11707953
48	0xbdd225b7	-0.102611
49	0xbe048548	-0.12941468
50	0x3eb38a55	0.35066476
51	0x3dee2bd2	0.11629452
52	0xbd86984d	-0.06572018
53	0xbe75a7aa	-0.2398974
54	0xbed8bb72	-0.4233051
55	0xbd3a16ac	-0.045431778
56	0xbe535fac	-0.20641965
57	0xbe19ddd5	-0.15026028
58	0x3dc44dc3	0.09585144
59	0xbeb70b1b	-0.3575066
60	0xbe85f51c	-0.26163566
61	0xbd86008e	-0.065430745
62	0xbe4a1ef4	-0.1973837
63	0xbd87ba99	-0.066273876
64	0x3e705e29	0.23473419
65	0x3bf0ae05	0.0073449635
66	0xbda4a466	-0.08039169
67	0x3e33138b	0.17487924
68	0x3dba042d	0.09082828
69	0x3e97ec8f	0.29672667
70	0x3e8880db	0.2666081
71	0x3ec18e43	0.3780385
72	0x3d80852d	0.06275401
73	0xbdfbab8d	-0.1228858
74	0x3e654efe	0.22393414
75	0xbe64ee3e	-0.22356507
76	0xbb709a54	-0.003671308
77	0xbe499ceb	-0.19688766
78	0x3e0351ce	0.12824175
79	0xbe4ab504	-0.19795614
80	0xbd3b3d80	-0.045712948
81	0x3d7ba7d2	0.061439343
82	0x3e4b1961	0.198339
83	0xbce990ce	-0.028511431
84	0xbe198691	-0.1499274
85	0x3d971f2f	0.07378995
86	0x3d381c0d	0.044948626
87	0x3d8a64f9	0.0675754
88	0xbe509b8d	-0.20371838
89	0xbf025d89	-0.50923973
90	0x3cc39fd4	0.023879923
91	0x3e2dae81	0.16961099
92	0x3e838fab	0.25695547
93	0x39622bec	0.00021569402
94	0xbee8c56c	-0.4546312
95	0x3defe8c8	0.117143214
96	0x3c3dfcdc	0.011595931
97	0x3eb57937	0.35444042
98	0x3eb4e71f	0.3533258
99	0xbd66ad09	-0.056317363
100	0xbe0accff	-0.13554762
101	0x3d197d7d	0.03747319
102	0xbda80c51	-0.08205474
103	0xbd9fa277	-0.077946596
104	0xbbfeb7b4	-0.007773364
105	0x3da3d80d	0.08000193
106	0xbdb94e8d	-0.090481855
107	0x3e06d43f	0.13166903
108	0xbd94b2a1	-0.07260633
109	0x3b85b13f	0.0040799673
110	0x3d00f9b8	0.03148815
111	0xbe501268	-0.20319521
112	0xbe54d830	-0.20785594
113	0x3d1eb82c	0.03874986
114	0x3d29d073	0.04145856
115	0x3dc08707	0.094007544
116	0x3cf50994	0.029911794
117	0xbd9780da	-0.07397623
118	0x3df0a2a4	0.11749771
119	0x3c9a64d3	0.018846905
120	0xbc4c823a	-0.01248222
121	0xbe671c8c	-0.22569484
122	0xbe9191a3	-0.28431424
123	0x3e8c5368	0.27407384
124	0xbe98ed89	-0.29868725
125	0x3e53bc4c	0.20677298
126	0xbd05f7fb	-0.032707196
127	0x3e972026	0.29516715
128	0x3e8cef6a	0.27526408
129	0x3ec55193	0.385388
130	0x3eacc18d	0.33741418
131	0xbdd7ecfb	-0.10543247
132	0x3dd52049	0.104065485
133	0xbe4f3153	-0.2023366
134	0xbe05a290	-0.13050294
135	0x3e2d44d3	0.16920786
136	0x3e2db6b0	0.16964221
137	0xbe71b219	-0.23603095
138	0xbea6249f	-0.32449815
139	0x3d94dad0	0.07268298
140	0xbe78579b	-0.24252169
141	0xbba4b240	-0.005026132
142	0xbf0ed281	-0.55789953
143	0xbe216282	-0.15760234
144	0x3d3d8771	0.046271745
145	0xbef783fd	-0.48342887
146	0x3debc7b2	0.11512698
147	0xbd9a1e55	-0.075253166
148	0x3dd38abd	0.103291966
149	0x3cb6c666	0.0223114
150	0x3e0ccf78	0.13751018
151	0x3d9c377d	0.07627771
152	0x3e305097	0.17218243
153	0xbe71cfd4	-0.23614436
154	0xbd062ab0	-0.032755554
155	0xbee2c476	-0.44290513
156	0xbec20c2d	-0.37899914
157	0xbdf61c8f	-0.12017166
158	0x3d5bc318	0.053652853
159	0x3ca1734a	0.019708294
160	0x3e37aee5	0.1793781
161	0x3e0467fa	0.12930289
162	0x3e732087	0.23742877
163	0x3b859439	0.0040765074
164	0xbeee0ad4	-0.46492636
165	0x3ddbddb7	0.10735648
166	0x3e1ef48b	0.15522973
167	0x3ddc254f	0.107493035
168	0x3eb56422	0.35427958
169	0xbdecd5b5	-0.11564199
170	0xbe663f3e	-0.22485062
171	0xbf21799c	-0.63076186
172	0xbe1e981a	-0.1548771
173	0x3ce14adc	0.027501516
174	0x3d946586	0.072459266
175	0x3dc3ff2c	0.095701545
176	0xbe098918	-0.13431203
177	0xbea1ea1b	-0.3162392
178	0xbd04ef4e	-0.03245478
179	0xbe34c5ba	-0.17653552
180	0x3e58fbea	0.21189848
181	0x3e355a18	0.1771015
182	0x3dbcadf5	0.09212867
183	0xbde22fc8	-0.1104427
184	0x3be386c5	0.006943556
185	0x3e65184a	0.22372547
186	0x3ec85e50	0.39134455
187	0x3e37a5fa	0.17934409
188	0xbea41036	-0.32043618
189	0xbb37e6ca	-0.0028061145
190	0xbefa991f	-0.48944947
191	0xbe50ae2e	-0.20378944
192	0x3e3b31c0	0.18280697
193	0xbe644c6f	-0.22294782
194	0xbebdec3c	-0.37094295
195	0xbebea9f9	-0.37239054
196	0xbdcbfedb	-0.09960719
197	0x3eb521c7	0.35377333
198	0x3e790c78	0.24321163
199	0xbe245e07	-0.16051494
200	0xbc213243	-0.0098386435
201	0x3e5f352d	0.21797629
202	0x3db21ca8	0.08696872
203	0xbe18dd17	-0.14928089
204	0x3dcc58f0	0.09977901
205	0x3e6f204a	0.23352161
206	0x3ec1f835	0.3788468
207	0xbe61ea70	-0.22062087
208	0xbeb0ffcf	-0.34570166
209	0xbee8b756	-0.45452374
210	0x3e495ec3	0.19665055
211	0xbdf90592	-0.121592656
212	0x3e6f8c17	0.23393284
213	0xbe8d40b7	-0.27588436
214	0xbe397675	-0.18111594
215	0xbe965006	-0.29357928
216	0xbe2c62be	-0.16834542
217	0x3d6f3ba6	0.058406495
218	0x3e880203	0.26564035
219	0xbcc50e25	-0.024054596
220	0xbf1aa6d2	-0.604108
221	0xbec94e3c	-0.393175
222	0x3e5e4c4e	0.21708795
223	0x3e91a092	0.28442818
224	0x3e57f3e0	0.21089125
225	0xbe31c9b5	-0.17362101
226	0x3d8a8b72	0.06764878
227	0xbe2c5f92	-0.16833332
228	0xbeabd5c8	-0.3356154
229	0xbe352c29	-0.17692627
230	0x3e1766bf	0.14785288
231	0x3da17b62	0.078848615
232	0xbe9fdedc	-0.31224716
233	0x3e1072ba	0.14106265
234	0x3de63f18	0.11242503
235	0x3e0c1040	0.13678074
236	0x3e8709b8	0.26374602
237	0xbe8510c5	-0.25989357
238	0x3e91029c	0.28322303
239	0x3dd481dd	0.10376332
240	0x3e1bdbdc	0.15220588
241	0xbd2b5d31	-0.04183692
242	0xbe66d4cd	-0.22542115
243	0x3db1f386	0.086890265
244	0xbead517a	-0.33851224
245	0xbd88ba53	-0.066761635
246	0x3e0f7c93	0.14012365
247	0xbdcf8918	-0.101335704
248	0x3ecae12d	0.3962492
249	0xbe6d00ae	-0.2314479
250	0x3da4e53e	0.08051537
251	0xbdece30b	-0.115667425
252	0xbe1af209	-0.15131392
253	0x3e01c48b	0.12672631
254	0xbe915e6e	-0.28392357
255	0x3e042bb9	0.12907304

conv.0.bias f4 [32]
0	0x3da2466c	0.07923588
1	0xbda9dbbc	-0.08293864
2	0xbce88c25	-0.028387139
3	0xbdb16c7c	-0.0866327
4	0xbd765aeb	-0.0601453
5	0xbd8523c3	-0.06500962
6	0xbd055d48	-0.032559663
7	0xbcb25dfe	-0.021773335
8	0xbcf641bd	-0.030060643
9	0x3c9004fb	0.0175805
10	0xbe246fb6	-0.1605824
11	0xbead1ced	-0.3381113
12	0xbdae8948	-0.08522278
13	0xbd2a4f33	-0.041579437
14	0xbd65700f	-0.05601507
15	0x3d10fd44	0.035397783
16	0x3ce6de7c	0.02818226
17	0x3e26bf52	0.1628392
18	0x3e5371ac	0.20648831
19	0xbdbbd6c6	-0.09171824
20	0x3d2ffa78	0.042963475
21	0xbe484060	-0.19555807
22	0xbd8b635a	-0.06806059
23	0xbdbbee73	-0.0917634
24	0xbc9f65e0	-0.019457757
25	0xbd977998	-0.07396239
26	0xbceac17b	-0.028656712
27	0x3d3a29ff	0.045450207
28	0xbe89a565	-0.26884
29	0x3df9bb9b	0.12193986
30	0xbd37306a	-0.044723906
31	0x3c82832b	0.015931686

conv.3.weight f4 [64, 32, 5, 5]
0	0xbb4ade4e	-0.0030955258
1	0x3e1936f9	0.14962377
2	0x3db7d341	0.0897584
3	0xbb5acc6e	-0.003338601
4	0xbd94083a	-0.072281316
5	0xbd6bef43	-0.057601225
6	0xbd593a61	-0.05303419
7	0x3caaf964	0.020870872
8	0x3d1ce69a	0.038305856
9	0xbe50c128	-0.20386183
10	0xbe0dbca4	-0.13841492
11	0xbe2395ec	-0.1597516
12	0xbdfc2754	-0.12312189
13	0xbd5f96aa	-0.054587044
14	0xbe241ffa	-0.16027823
15	0xbdd1086a	-0.10206683
16	0xbdd6c8fd	-0.10487554
17	0xbdc0c894	-0.09413257
18	0xbd81d5c0	-0.06339598
19	0xbe0b685a	-0.13614026
20	0xbd514cea	-0.05109874
21	0xbdb0fa17	-0.08641451
22	0xbd3500f2	-0.044190355
23	0x3c4a79a0	0.012358099
24	0x3d853c19	0.06505603
25	0xbdc09b49	-0.09404618
26	0xbdf66d88	-0.1203261
27	0xbda40de1	-0.0801046
28	0x3bc6d3db	0.0060677356
29	0xbb25d0c5	-0.0025301438
30	0x3be841ea	0.0070879357
31	0xbe30a7c7	-0.17251502
32	0xbcf38f86	-0.029731523
33	0xbdcd4584	-0.10023025
34	0xbd88fa9a	-0.066884235
35	0x3bb4711b	0.0055066473
36	0x3d09fd67	0.03368893
37	0x3d240c68	0.040050894
38	0xbdbafaa1	-0.09129835
39	0x3d33ce69	0.04389802
40	0x3d67fe10	0.056638777
41	0x3d30e2cf	0.04318505
42	0x3b54e8cb	0.0032487388
43	0x3da2c071	0.079468615
44	0x3e424095	0.18969949
45	0xbe0fc777	-0.14040934
46	0xbd4df65f	-0.050283786
47	0xbc9e5713	-0.01932863
48	0x3e57c270	0.21070266
49	0x3d91c754	0.07118097
50	0xbe6431f1	-0.22284676
51	0xbe69a461	-0.22816612
52	0xbdf2adb7	-0.1184954
53	0x3e2e6081	0.17029001
54	0x3d20a289	0.039217506
55	0xbd481fd8	-0.048858494
56	0xbe86f06a	-0.26355296
57	0xbe8a5580	-0.27018356
58	0xbe867111	-0.26258138
59	0xbd6a1d37	-0.057156768
60	0x3deccf8f	0.11563026
61	0x3da02b9a	0.07820816
62	0x3dec3399	0.11533279
63	0x3e0610da	0.13092366
64	0x3e050a80	0.12992287
65	0xbd439973	-0.047753762
66	0x3c2c8797	0.010530374
67	0x3b22539b	0.002476907
68	0x3d435699	0.047690008
69	0xbcad7bf8	-0.021177277
70	0xbcd247c5	-0.025668988
71	0xbcd4c00f	-0.025970487
72	0xbbe8f2c6	-0.007109019
73	0x3d414da5	0.04719319
74	0x3dc18cbf	0.09450673
75	0x3e9341b3	0.28761062
76	0x3cc8ad19	0.024496602
77	0xbe1dd87a	-0.1541461
78	0xbd634e27	-0.055494454
79	0x3c91ed78	0.01781343
80	0xbe0cc556	-0.13747153
81	0xbe3c1b94	-0.18369895
82	0xbead184b	-0.33807597
83	0xbeb134df	-0.3461065
84	0xbd86901e	-0.06570457
85	0xbc909519	-0.01764922
86	0xbd48bb4b	-0.04900674
87	0xbdd8fc4a	-0.10594995
88	0x39fa21fc	0.00047709036
89	0x3e20a810	0.15689111
90	0xbd31b860	-0.043388724
91	0xbb5ce72b	-0.0033707123
92	0x3d108a0e	0.03528791
93	0x3dcbcee5	0.099515714
94	0x3d343ed0	0.044005215
95	0x3d6d1278	0.05787894
96	0x3d86f173	0.065890215
97	0x3e1a874e	0.15090677
98	0x3ddaeb9a	0.10689469
99	0xbc88c428	-0.016695097
100	0xbc64be8a	-0.013961444
101	0x3c7ff425	0.015622173
102	0x3c27c025	0.010238682
103	0xbcbe3cef	-0.023222415
104	0xbbd4042d	-0.0064702244
105	0xbe61c8f5	-0.22049315
106	0xbe15a05f	-0.14611958
107	0xbe15c98e	-0.14627668
108	0xbe1fac6c	-0.15593117
109	0x3d7e7b45	0.062129278
110	0xbda41284	-0.08011344
111	0xbd2dc70a	-0.042426147
112	0xbcc30e4c	-0.023810528
113	0xbdecf55d	-0.11570237
114	0xbcbac4da	-0.022798944
115	0xbcc97b67	-0.024594976
116	0x3cb04304	0.02151633
117	0x3daf56ad	0.08561454
118	0x3dc45e89	0.09588344
119	0x3d87bf27	0.06628256
120	0x3b5a2be1	0.0033290314
121	0x3d1e7e98	0.038694948
122	0xbd0f6578	-0.035008878
123	0xbd646f5c	-0.055770263
124	0xbd93a9af	-0.07210099
125	0x3a207075	0.0006120273
126	0xbd1b39dc	-0.037896976
127	0xbd33d673	-0.043905687
128	0x3d724f49	0.059157643
129	0x3e9078be	0.2821712
130	0xbdbaf045	-0.09127859
131	0xbdfa14d6	-0.122110054
132	0x3c970a09	0.018437402
133	0x3d6af68f	0.057364043
134	0x3e43f071	0.1913469
135	0xbd976867	-0.0739296
136	0xbd9709ef	-0.073749416
137	0x3d059bbe	0.03261923
138	0xbd8bd6a9	-0.068280526
139	0xbdf94736	-0.121717855
140	0xbe8b7199	-0.27235106
141	0xbe5a1edb	-0.21300833
142	0xbe9ff481	-0.3124123
143	0xbeb2747a	-0.3485449
144	0xbe4d6de4	-0.20061451
145	0xbe58207a	-0.21106139
146	0xbe15b8ea	-0.1462132
147	0xbd399d1f	-0.045315858
148	0x3d39e5af	0.04538506
149	0xbaa6f8e0	-0.0012738965
150	0x3d3c237f	0.04593229
151	0xbdb2c836	-0.087295935
152	0x3b078c69	0.0020683056
153	0xbcf34c82	-0.029699568
154	0xbc4648fd	-0.012102363
155	0x3d0eb64a	0.034841813
156	0x3c80532a	0.015664656
157	0xbdaf33c6	-0.08554797
158	0x3c6e2b18	0.014536642
159	0x3d9bb350	0.076025605
160	0x3e1847ea	0.14871183
161	0x3c5c2d37	0.013438514
162	0xbd6ad575	-0.057332475
163	0xbd4e48f5	-0.050362546
164	0x3dae95ba	0.08524652
165	0x3c9a201c	0.018814139
166	0xbd23faae	-0.04003399
167	0x3b9aa9e0	0.0047199577
168	0xbcf4fcec	-0.029905759
169	0x3df8a55f	0.12140917
170	0xbca9afcf	-0.020713715
171	0x3e2a53e5	0.16633566
172	0x3e3f95d2	0.18709496
173	0x3e215d40	0.15758228
174	0x3e191fad	0.1495349
175	0x3df371be	0.11886929
176	0xbd269a65	-0.040674586
177	0xbe4e70da	-0.20160237
178	0x3da6c8d8	0.08143777
179	0x3e2609f6	0.16214737
180	0x3e6a72c7	0.22895347
181	0x3e1c83aa	0.15284601
182	0xbd4047a1	-0.04694331
183	0xbc52166b	-0.012822728
184	0x3d63ff3a	0.055663325
185	0xbe726a31	-0.23673321
186	0xbe049393	-0.1294692
187	0xbd43ee67	-0.04783478
188	0xbe33eb71	-0.17570283
189	0xbe0642f0	-0.13111472
190	0xbdd6baee	-0.10484873
191	0xbc1c3a76	-0.009535423
192	0x3d4205fd	0.047368992
193	0xbdb3780f	-0.08763134
194	0xbcb2bb6e	-0.021817889
195	0xbe48aad4	-0.19596416
196	0x3d77ddd7	0.060514297
197	0x3d53bb90	0.051692545
198	0x3c3af211	0.011410252
199	0x3ccaa737	0.024737937
200	0x3c9ac1e4	0.018891282
201	0xbde31e33	-0.110897444
202	0xbdacce79	-0.08437819
203	0x3d3a1a02	0.04543496
204	0xbd934d13	-0.07192435
205	0x3e52e343	0.20594506
206	0x3bd3884f	0.0064554582
207	0xbc80b540	-0.015711427
208	0x3d2fd2b4	0.04292555
209	0x3c518793	0.012788671
210	0xbe0dffca	-0.13867107
211	0xbda5d15e	-0.08096574
212	0x3e30d71d	0.17269559
213	0x3bc7a497	0.0060926187
214	0xbd54de84	-0.05197002
215	0xbe0e802e	-0.13916084
216	0xbd37825f	-0.044802066
217	0xbcdd9c8a	-0.027052183
218	0xbe06a9a0	-0.13150644
219	0x3e0976ac	0.13424176
220	0xbe135ba7	-0.14390431
221	0x3e020671	0.1269777
222	0x3e062912	0.13101605
223	0x3e421659	0.18953837
224	0x3d4f1c6f	0.050564226
225	0x3d54d82b	0.051963966
226	0xbd81ed7a	-0.06344123
227	0xbe11773b	-0.14205639
228	0xbc408bfc	-0.011752125
229	0xbcad6348	-0.021165505
230	0xbe5857bc	-0.21127218
231	0xbcf5d385	-0.030008087
232	0xbe3c3e49	-0.18383135
233	0xbe9b309a	-0.30310518
234	0xbe05f41b	-0.130814
235	0xbdec1e20	-0.115291834
236	0xbd3bfa95	-0.04589327
237	0xbe3bcbf3	-0.18339519
238	0xbea34edf	-0.3189611
239	0xbdbbf989	-0.091784544
240	0x3da410b7	0.080110006
241	0x3d8b3f23	0.06799152
242	0x3de22ed4	0.11044088
243	0x3cb5562d	0.022135818
244	0x3da8b7ea	0.08238204
245	0xbd872958	-0.065996826
246	0xbdbb0eba	-0.09133668
247	0xbca9b4b0	-0.020716041
248	0x3dac0b88	0.08400637
249	0x3daa708d	0.083222486
250	0xbb9c91bc	-0.004778115
251	0x3acc9198	0.0015607355
252	0xbb8ffbd6	-0.004394035
253	0x3db6a387	0.08917909
254	0xbe2092b0	-0.15680957
255	0x3dcf1a4e	0.10112439

conv.3.bias f4 [64]
0	0xbe53db1c	-0.20689052
1	0xbccf22e9	-0.025285201
2	0x3cc4d5e9	0.024027782
3	0xbd11dbf9	-0.035610173
4	0xbd8ab691	-0.06773103
5	0xbe05e1ce	-0.13074419
6	0xba604558	-0.0008555255
7	0xbda0e695	-0.0785648
8	0xbdb03707	-0.08604246
9	0xbe58950d	-0.21150608
10	0xbd08254d	-0.033238698
11	0xbe27d0b4	-0.16388208
12	0xbce3d398	-0.027810857
13	0xbd1cfc21	-0.038326386
14	0xbce5f847	-0.02807249
15	0xbcd46add	-0.025929863
16	0xbd6771df	-0.05650508
17	0xbd953e86	-0.07287316
18	0xbdfe1c51	-0.12407745
19	0xbd4244a7	-0.047428753
20	0x3cbdac8a	0.023153562
21	0xbd4018f9	-0.046898816
22	0xbde1615f	-0.110049
23	0xbcbb30d3	-0.02285043
24	0xbd88398b	-0.066516005
25	0x3bdf965a	0.006823343
26	0xbd4a088e	-0.049324565
27	0xbd102d35	-0.035199363
28	0xbdd3da01	-0.10344315
29	0xbd0d2bc3	-0.034465563
30	0xbdf592f7	-0.11990922
31	0xbdca0b47	-0.09865432
32	0xbc47a700	-0.012185812
33	0xbd9b1544	-0.075724155
34	0xbe27d6df	-0.1639056
35	0xbdafd89f	-0.08586239
36	0xbe01173d	-0.12606521
37	0xbe2f52b8	-0.17121398
38	0xbd85fe24	-0.06542614
39	0xbd6e844d	-0.05823164
40	0xbe6fb694	-0.23409492
41	0xbd92f824	-0.07176235
42	0xbc12a6e7	-0.008950925
43	0xbc2eba14	-0.010664482
44	0xbdc4cf87	-0.09609895
45	0xbd43c483	-0.04779483
46	0xbcee1854	-0.029064335
47	0xbe8a283b	-0.26983818
48	0xbdd1d972	-0.102465525
49	0xbda72ad4	-0.08162466
50	0xbd8ef755	-0.069807686
51	0xbcad3c37	-0.021146877
52	0xbde104e0	-0.10987258
53	0xbe424d0f	-0.18974708
54	0xbdbb252c	-0.09137949
55	0xbdca8eb8	-0.09890503
56	0xbc4d5ea0	-0.012534767
57	0xbe576b90	-0.21037126
58	0xbddd82a0	-0.1081593
59	0xbcc0ea79	-0.023549305
60	0xbd9c8cab	-0.07644018
61	0xba651026	-0.0008738063
62	0xbcc1a6cb	-0.023639103
63	0xbd7860f2	-0.06063933

fc.weight f4 [10, 3136]
0	0x3d29bf4a	0.041442193
1	0xbdb368a7	-0.08760195
2	0x3ca6bc58	0.020353481
3	0x3cbe3c27	0.023222042
4	0x3b8ea98b	0.004353707
5	0x3d9480b9	0.072511144
6	0x3e0def50	0.13860822
7	0xbc2fe957	-0.010736785
8	0x3bf06b57	0.0073370147
9	0x3d558d2b	0.05213658
10	0x3d96995b	0.07353469
11	0x3e1e6483	0.1546803
12	0x3dbb8fa7	0.09158259
13	0x3cae9bfc	0.021314614
14	0xbc148380	-0.009064555
15	0xbd3872a4	-0.045031205
16	0xbd8606c5	-0.0654426
17	0xbd7bf5e3	-0.061513793
18	0xbe5cd63a	-0.21566096
19	0xbe215d93	-0.15758352
20	0xbdbce692	-0.09223665
21	0xbe300f6f	-0.17193387
22	0xbe570733	-0.2099884
23	0xbeec9cbc	-0.4621333
24	0xbdda374e	-0.1065508
25	0x3d5f3c20	0.0545007
26	0x3d9afe7c	0.0756807
27	0xbe15fc79	-0.14647092
28	0xbe75c782	-0.24001887
29	0xbef22313	-0.47292385
30	0xbf046e81	-0.51731116
31	0x3cf63705	0.030055532
32	0x3e0ce308	0.1375848
33	0xbd2c17e6	-0.04201498
34	0x3c1d62c7	0.00960607
35	0xbc331845	-0.010931079
36	0xbda30f6e	-0.07961927
37	0xbd725373	-0.059161615
38	0x3ddae790	0.10688698
39	0x3de5bc8c	0.11217603
40	0x3d5408ca	0.051766194
41	0x3b955c66	0.004558134
42	0x3dd03f5b	0.10168334
43	0xbcdd484a	-0.02701201
44	0x3d93b93e	0.072130665
45	0x3cd8ea81	0.026479008
46	0x3cd7d7b8	0.02634798
47	0xbcd8e303	-0.026475435
48	0xbdc1421e	-0.09436439
49	0xbd808066	-0.0627449
50	0xbe72d07e	-0.23712346
51	0xbdabb7c5	-0.08384661
52	0xbd54595b	-0.05184303
53	0xbd51bbbc	-0.051204428
54	0x3d41af54	0.047286347
55	0x3d47c20b	0.04876904
56	0xbc9a2126	-0.018814635
57	0x3df34f3a	0.11880346
58	0x3d02c2ef	0.031924184
59	0xbdc653d2	-0.09683956
60	0x3e22701f	0.15863083
61	0xbcd34de0	-0.02579397
62	0x3e1fa866	0.15591583
63	0xbcbb56cc	-0.022868536
64	0xbcdd808e	-0.027038839
65	0x3d9363d5	0.07196776
66	0xbda4e2e6	-0.0805109
67	0xbd1a4bc7	-0.037669923
68	0xbd9e6beb	-0.077354275
69	0x3e2b5e4c	0.1673519
70	0xbccacaa8	-0.024754837
71	0xbe54ca86	-0.20780382
72	0xbbe5240e	-0.0069928234
73	0xbe91bdbf	-0.28465077
74	0xbd92ce19	-0.07168216
75	0xbcb119f6	-0.021618824
76	0x3e16a5f4	0.14711744
77	0xbe8ab9ab	-0.27094778
78	0xbdd34fe8	-0.10317975
79	0xbd25a4c2	-0.04044033
80	0x3d22baec	0.039729044
81	0x3aa1e6e9	0.0012352142
82	0x3dfdc5f6	0.12391274
83	0x3c21affe	0.00986862
84	0xbe2de081	-0.16980173
85	0xbde67e77	-0.1125459
86	0x3b20f9fc	0.0024563065
87	0x3cf12d17	0.029440446
88	0xbd475615	-0.04866608
89	0xbd3250bc	-0.043534026
90	0xbd11f171	-0.035630647
91	0x3d595039	0.053055022
92	0x3e8b931d	0.27260676
93	0xbe034043	-0.12817483
94	0xbd86d752	-0.06584038
95	0x3e0f8ed0	0.14019322
96	0xbd8fb289	-0.07016475
97	0xbce7b34a	-0.028283734
98	0xbc682cb0	-0.014170811
99	0xbce5cdbb	-0.028052201
100	0xbb5043f3	-0.0031778782
101	0xbca846a9	-0.020541506
102	0xbd675d96	-0.056485735
103	0xbbafeb02	-0.0053685913
104	0xbb921795	-0.0044583776
105	0xbdf3bd02	-0.11901285
106	0xbd6d9e3b	-0.05801223
107	0x3cb03eec	0.021514378
108	0xbe323e78	-0.17406642
109	0xbdb18d55	-0.08669535
110	0x3c16f95f	0.009214728
111	0x3e321475	0.17390616
112	0xbeb31ff9	-0.3498533
113	0x3bf11220	0.007356897
114	0xbd87c0f8	-0.06628603
115	0xb980be18	-0.00024555693
116	0xbdc1537f	-0.09439754
117	0xbce60850	-0.028080136
118	0x3cffaed8	0.031211302
119	0xbdae6e89	-0.08517177
120	0xbe067e52	-0.13134125
121	0xbe16ffaa	-0.14745966
122	0xbe1c309b	-0.15252917
123	0xbd46a1f9	-0.048494313
124	0xbe7d157a	-0.24715224
125	0xbdb499a8	-0.0881837
126	0xbc906ba5	-0.017629454
127	0x3d6c7fe1	0.057739142
128	0xbc552720	-0.013009816
129	0x3df479af	0.11937272
130	0x3d40a8f8	0.04703614
131	0x3ceb7603	0.028742796
132	0xbd1300fa	-0.035889603
133	0xbbd06e95	-0.0063608387
134	0xbd9edf02	-0.07757379
135	0x3dda7180	0.1066618
136	0x3d9ddb46	0.07707839
137	0x3e053f13	0.13012342
138	0xbc303e78	-0.010757081
139	0xbd252d01	-0.040326122
140	0xbd2fb4fd	-0.042897213
141	0xbe25908f	-0.16168426
142	0xbde67b60	-0.11254001
143	0xbe4ff2a6	-0.20307407
144	0xbeba3c5f	-0.36374184
145	0xbe80c048	-0.251467
146	0xbdd352fa	-0.10318561
147	0xbe0ea3a9	-0.13929619
148	0xbdd13d9d	-0.1021683
149	0xbd95d952	-0.07316841
150	0xbe5d167e	-0.21590611
151	0x3d2d8fcd	0.042373467
152	0xbbffc4b0	-0.0078054294
153	0xbe03a7fe	-0.12857053
154	0xbce7eedc	-0.02831214
155	0x3d0afd02	0.033932693
156	0xbd1f2695	-0.038855154
157	0x3e050504	0.12990195
158	0xbdbd4296	-0.09241216
159	0x3d4c4674	0.049871877
160	0xbe7fb224	-0.24970299
161	0x3c6f0d16	0.014590522
162	0xbd5a26b5	-0.05325957
163	0xbc6b97d6	-0.014379462
164	0xbda34130	-0.07971418
165	0x3defac7f	0.11702823
166	0x3e02ef17	0.12786518
167	0x3c4307fb	0.011903758
168	0xb9f255da	-0.000462218
169	0xbc692a3b	-0.01423126
170	0xbdabc019	-0.08386249
171	0x3c52094a	0.0128195975
172	0x3e0f14ad	0.13972731
173	0x3c695363	0.014241072
174	0xbc9e7619	-0.019343423
175	0xbcf1ff32	-0.029540632
176	0xbd1ce6f1	-0.03830618
177	0xbe103f5a	-0.14086667
178	0xbddcec03	-0.10787203
179	0x3e25ad06	0.16179284
180	0xbd8bf899	-0.068345256
181	0xbe321ee3	-0.17394595
182	0xbd543fd0	-0.05181867
183	0x3d900d0b	0.07033738
184	0x3dc63237	0.096775465
185	0xbdd182c6	-0.10230021
186	0x3d7f1c9b	0.06228314
187	0xbdd8fd57	-0.10595196
188	0xbd9cfb74	-0.076651484
189	0xbb8dd712	-0.004328617
190	0x3d78de63	0.06075896
191	0xbd01f41a	-0.031726934
192	0xbd969695	-0.0735294
193	0xbdc393cb	-0.09549674
194	0xbdd6083b	-0.104507886
195	0xbd88629a	-0.06659432
196	0xbcafd76e	-0.02146503
197	0xbd48ab1a	-0.0489913
198	0x3d9f7f4a	0.0778795
199	0xbcd05897	-0.025432868
200	0xbbecaff1	-0.0072231223
201	0xbae3b90f	-0.0017373877
202	0x3cde8117	0.027161164
203	0x3d0d41e4	0.034486666
204	0x3b1e199b	0.0024124149
205	0x3dbdcb3e	0.09267281
206	0x3cadc516	0.021212142
207	0xbe004058	-0.12524545
208	0xbeb10134	-0.3457123
209	0xbe875cbe	-0.26437944
210	0x3d4ac835	0.04950734
211	0x3db2dfb7	0.087340765
212	0x3d5c1a42	0.05373598
213	0xbe70606d	-0.23474284
214	0xbdc53988	-0.09630114
215	0xbdfe2c97	-0.124108486
216	0xbebd3507	-0.3695452
217	0xbcb6a682	-0.022296194
218	0x3dde9d98	0.10869902
219	0xbdc7a6a6	-0.097485825
220	0x3d2ecb4d	0.04267435
221	0x3bbc8a2b	0.0057537756
222	0xbe0b9c09	-0.13633741
223	0x3d8fd7ba	0.070235685
224	0xbdf6afa3	-0.12045219
225	0xbe45f23c	-0.19330686
226	0xbe1808f2	-0.14847162
227	0xbcce0477	-0.025148613
228	0x3e072f8c	0.13201731
229	0x3e373cb5	0.17894252
230	0x3dfb4c7d	0.12270448
231	0xbe8e0f4a	-0.2774604
232	0xbeec3b81	-0.46139148
233	0xbe677c64	-0.22606045
234	0x3e3e1054	0.18560916
235	0x3e173246	0.14765272
236	0x3df5fe9f	0.12011456
237	0x3d01ba74	0.031671956
238	0xbca40951	-0.020023974
239	0xbd932196	-0.071841404
240	0xbc9c571c	-0.019084506
241	0x3d954840	0.07289171
242	0x3da06f54	0.07833734
243	0xbde96cc9	-0.11397702
244	0xbd3aa595	-0.045568068
245	0x3c43f5d2	0.011960464
246	0xbd6bb8cd	-0.057549287
247	0x3cfb2794	0.03065852
248	0xbc5f0cc2	-0.013613882
249	0x3c9922c3	0.018693333
250	0xbd493eb9	-0.049132083
251	0x3da5fa74	0.08104411
252	0x3b5d0c40	0.0033729225
253	0xbbb54b9f	-0.0055326964
254	0xbe2b8798	-0.16750944
255	0xbd10a41b	-0.035312753

fc.bias f4 [10]
0	0x3d23d1a2	0.039994843
1	0x3d86a1e9	0.06573851
2	0xbc781c53	-0.015143472
3	0xbccb5107	-0.02481891
4	0x3ce9d1aa	0.028542358
5	0xba583b03	-0.00082485395
6	0xbcbbd433	-0.022928333
7	0xbc847275	-0.016167859
8	0x3c5c00a7	0.01342789
9	0xbd1241db	-0.035707336
